Model: "sequential_135"
_________________________________________________________________
Layer (type)                 Output Shape              Param #   
=================================================================
separable_conv2d_888 (Separa (None, 32, 32, 16)        91        
_________________________________________________________________
activation_1161 (Activation) (None, 32, 32, 16)        0         
_________________________________________________________________
dropout_1161 (Dropout)       (None, 32, 32, 16)        0         
_________________________________________________________________
separable_conv2d_889 (Separa (None, 32, 32, 128)       2320      
_________________________________________________________________
batch_normalization_718 (Bat (None, 32, 32, 128)       512       
_________________________________________________________________
activation_1162 (Activation) (None, 32, 32, 128)       0         
_________________________________________________________________
dropout_1162 (Dropout)       (None, 32, 32, 128)       0         
_________________________________________________________________
separable_conv2d_890 (Separa (None, 32, 32, 512)       67200     
_________________________________________________________________
activation_1163 (Activation) (None, 32, 32, 512)       0         
_________________________________________________________________
dropout_1163 (Dropout)       (None, 32, 32, 512)       0         
_________________________________________________________________
max_pooling2d_248 (MaxPoolin (None, 16, 16, 512)       0         
_________________________________________________________________
separable_conv2d_891 (Separa (None, 16, 16, 256)       135936    
_________________________________________________________________
batch_normalization_719 (Bat (None, 16, 16, 256)       1024      
_________________________________________________________________
activation_1164 (Activation) (None, 16, 16, 256)       0         
_________________________________________________________________
dropout_1164 (Dropout)       (None, 16, 16, 256)       0         
_________________________________________________________________
max_pooling2d_249 (MaxPoolin (None, 8, 8, 256)         0         
_________________________________________________________________
flatten_135 (Flatten)        (None, 16384)             0         
_________________________________________________________________
dense_408 (Dense)            (None, 32)                524320    
_________________________________________________________________
batch_normalization_720 (Bat (None, 32)                128       
_________________________________________________________________
activation_1165 (Activation) (None, 32)                0         
_________________________________________________________________
dropout_1165 (Dropout)       (None, 32)                0         
_________________________________________________________________
dense_409 (Dense)            (None, 512)               16896     
_________________________________________________________________
activation_1166 (Activation) (None, 512)               0         
_________________________________________________________________
dropout_1166 (Dropout)       (None, 512)               0         
_________________________________________________________________
dense_410 (Dense)            (None, 512)               262656    
_________________________________________________________________
batch_normalization_721 (Bat (None, 512)               2048      
_________________________________________________________________
activation_1167 (Activation) (None, 512)               0         
_________________________________________________________________
dropout_1167 (Dropout)       (None, 512)               0         
_________________________________________________________________
dense_411 (Dense)            (None, 100)               51300     
=================================================================
Total params: 1,064,431
Trainable params: 1,062,575
Non-trainable params: 1,856
_________________________________________________________________
