Model: "sequential_269"
_________________________________________________________________
Layer (type)                 Output Shape              Param #   
=================================================================
separable_conv2d_1682 (Separ (None, 32, 32, 16)        91        
_________________________________________________________________
activation_2106 (Activation) (None, 32, 32, 16)        0         
_________________________________________________________________
dropout_2106 (Dropout)       (None, 32, 32, 16)        0         
_________________________________________________________________
separable_conv2d_1683 (Separ (None, 32, 32, 16)        416       
_________________________________________________________________
batch_normalization_1349 (Ba (None, 32, 32, 16)        64        
_________________________________________________________________
activation_2107 (Activation) (None, 32, 32, 16)        0         
_________________________________________________________________
dropout_2107 (Dropout)       (None, 32, 32, 16)        0         
_________________________________________________________________
separable_conv2d_1684 (Separ (None, 32, 32, 128)       2320      
_________________________________________________________________
batch_normalization_1350 (Ba (None, 32, 32, 128)       512       
_________________________________________________________________
activation_2108 (Activation) (None, 32, 32, 128)       0         
_________________________________________________________________
dropout_2108 (Dropout)       (None, 32, 32, 128)       0         
_________________________________________________________________
separable_conv2d_1685 (Separ (None, 32, 32, 512)       67200     
_________________________________________________________________
activation_2109 (Activation) (None, 32, 32, 512)       0         
_________________________________________________________________
dropout_2109 (Dropout)       (None, 32, 32, 512)       0         
_________________________________________________________________
max_pooling2d_467 (MaxPoolin (None, 16, 16, 512)       0         
_________________________________________________________________
separable_conv2d_1686 (Separ (None, 16, 16, 256)       135936    
_________________________________________________________________
batch_normalization_1351 (Ba (None, 16, 16, 256)       1024      
_________________________________________________________________
activation_2110 (Activation) (None, 16, 16, 256)       0         
_________________________________________________________________
dropout_2110 (Dropout)       (None, 16, 16, 256)       0         
_________________________________________________________________
max_pooling2d_468 (MaxPoolin (None, 8, 8, 256)         0         
_________________________________________________________________
separable_conv2d_1687 (Separ (None, 8, 8, 64)          18752     
_________________________________________________________________
batch_normalization_1352 (Ba (None, 8, 8, 64)          256       
_________________________________________________________________
activation_2111 (Activation) (None, 8, 8, 64)          0         
_________________________________________________________________
dropout_2111 (Dropout)       (None, 8, 8, 64)          0         
_________________________________________________________________
separable_conv2d_1688 (Separ (None, 8, 8, 128)         8896      
_________________________________________________________________
batch_normalization_1353 (Ba (None, 8, 8, 128)         512       
_________________________________________________________________
activation_2112 (Activation) (None, 8, 8, 128)         0         
_________________________________________________________________
dropout_2112 (Dropout)       (None, 8, 8, 128)         0         
_________________________________________________________________
flatten_269 (Flatten)        (None, 8192)              0         
_________________________________________________________________
dense_693 (Dense)            (None, 100)               819300    
=================================================================
Total params: 1,055,279
Trainable params: 1,054,095
Non-trainable params: 1,184
_________________________________________________________________
