Model: "sequential_68"
_________________________________________________________________
Layer (type)                 Output Shape              Param #   
=================================================================
separable_conv2d_465 (Separa (None, 32, 32, 16)        91        
_________________________________________________________________
activation_606 (Activation)  (None, 32, 32, 16)        0         
_________________________________________________________________
dropout_606 (Dropout)        (None, 32, 32, 16)        0         
_________________________________________________________________
separable_conv2d_466 (Separa (None, 32, 32, 16)        416       
_________________________________________________________________
batch_normalization_362 (Bat (None, 32, 32, 16)        64        
_________________________________________________________________
activation_607 (Activation)  (None, 32, 32, 16)        0         
_________________________________________________________________
dropout_607 (Dropout)        (None, 32, 32, 16)        0         
_________________________________________________________________
separable_conv2d_467 (Separa (None, 32, 32, 128)       2320      
_________________________________________________________________
batch_normalization_363 (Bat (None, 32, 32, 128)       512       
_________________________________________________________________
activation_608 (Activation)  (None, 32, 32, 128)       0         
_________________________________________________________________
dropout_608 (Dropout)        (None, 32, 32, 128)       0         
_________________________________________________________________
separable_conv2d_468 (Separa (None, 32, 32, 512)       67200     
_________________________________________________________________
activation_609 (Activation)  (None, 32, 32, 512)       0         
_________________________________________________________________
dropout_609 (Dropout)        (None, 32, 32, 512)       0         
_________________________________________________________________
max_pooling2d_131 (MaxPoolin (None, 16, 16, 512)       0         
_________________________________________________________________
separable_conv2d_469 (Separa (None, 16, 16, 256)       135936    
_________________________________________________________________
batch_normalization_364 (Bat (None, 16, 16, 256)       1024      
_________________________________________________________________
activation_610 (Activation)  (None, 16, 16, 256)       0         
_________________________________________________________________
dropout_610 (Dropout)        (None, 16, 16, 256)       0         
_________________________________________________________________
max_pooling2d_132 (MaxPoolin (None, 8, 8, 256)         0         
_________________________________________________________________
separable_conv2d_470 (Separa (None, 8, 8, 128)         35200     
_________________________________________________________________
batch_normalization_365 (Bat (None, 8, 8, 128)         512       
_________________________________________________________________
activation_611 (Activation)  (None, 8, 8, 128)         0         
_________________________________________________________________
dropout_611 (Dropout)        (None, 8, 8, 128)         0         
_________________________________________________________________
flatten_68 (Flatten)         (None, 8192)              0         
_________________________________________________________________
dense_209 (Dense)            (None, 512)               4194816   
_________________________________________________________________
activation_612 (Activation)  (None, 512)               0         
_________________________________________________________________
dropout_612 (Dropout)        (None, 512)               0         
_________________________________________________________________
dense_210 (Dense)            (None, 512)               262656    
_________________________________________________________________
batch_normalization_366 (Bat (None, 512)               2048      
_________________________________________________________________
activation_613 (Activation)  (None, 512)               0         
_________________________________________________________________
dropout_613 (Dropout)        (None, 512)               0         
_________________________________________________________________
dense_211 (Dense)            (None, 100)               51300     
=================================================================
Total params: 4,754,095
Trainable params: 4,752,015
Non-trainable params: 2,080
_________________________________________________________________
