Model: "sequential_185"
_________________________________________________________________
Layer (type)                 Output Shape              Param #   
=================================================================
separable_conv2d_1190 (Separ (None, 32, 32, 16)        91        
_________________________________________________________________
activation_1544 (Activation) (None, 32, 32, 16)        0         
_________________________________________________________________
dropout_1544 (Dropout)       (None, 32, 32, 16)        0         
_________________________________________________________________
separable_conv2d_1191 (Separ (None, 32, 32, 16)        416       
_________________________________________________________________
batch_normalization_961 (Bat (None, 32, 32, 16)        64        
_________________________________________________________________
activation_1545 (Activation) (None, 32, 32, 16)        0         
_________________________________________________________________
dropout_1545 (Dropout)       (None, 32, 32, 16)        0         
_________________________________________________________________
separable_conv2d_1192 (Separ (None, 32, 32, 128)       2320      
_________________________________________________________________
batch_normalization_962 (Bat (None, 32, 32, 128)       512       
_________________________________________________________________
activation_1546 (Activation) (None, 32, 32, 128)       0         
_________________________________________________________________
dropout_1546 (Dropout)       (None, 32, 32, 128)       0         
_________________________________________________________________
separable_conv2d_1193 (Separ (None, 32, 32, 512)       67200     
_________________________________________________________________
activation_1547 (Activation) (None, 32, 32, 512)       0         
_________________________________________________________________
dropout_1547 (Dropout)       (None, 32, 32, 512)       0         
_________________________________________________________________
max_pooling2d_329 (MaxPoolin (None, 16, 16, 512)       0         
_________________________________________________________________
separable_conv2d_1194 (Separ (None, 16, 16, 256)       135936    
_________________________________________________________________
batch_normalization_963 (Bat (None, 16, 16, 256)       1024      
_________________________________________________________________
activation_1548 (Activation) (None, 16, 16, 256)       0         
_________________________________________________________________
dropout_1548 (Dropout)       (None, 16, 16, 256)       0         
_________________________________________________________________
max_pooling2d_330 (MaxPoolin (None, 8, 8, 256)         0         
_________________________________________________________________
separable_conv2d_1195 (Separ (None, 8, 8, 128)         35200     
_________________________________________________________________
batch_normalization_964 (Bat (None, 8, 8, 128)         512       
_________________________________________________________________
activation_1549 (Activation) (None, 8, 8, 128)         0         
_________________________________________________________________
dropout_1549 (Dropout)       (None, 8, 8, 128)         0         
_________________________________________________________________
flatten_185 (Flatten)        (None, 8192)              0         
_________________________________________________________________
dense_539 (Dense)            (None, 512)               4194816   
_________________________________________________________________
activation_1550 (Activation) (None, 512)               0         
_________________________________________________________________
dropout_1550 (Dropout)       (None, 512)               0         
_________________________________________________________________
dense_540 (Dense)            (None, 512)               262656    
_________________________________________________________________
batch_normalization_965 (Bat (None, 512)               2048      
_________________________________________________________________
activation_1551 (Activation) (None, 512)               0         
_________________________________________________________________
dropout_1551 (Dropout)       (None, 512)               0         
_________________________________________________________________
dense_541 (Dense)            (None, 100)               51300     
=================================================================
Total params: 4,754,095
Trainable params: 4,752,015
Non-trainable params: 2,080
_________________________________________________________________
