Model: "sequential_248"
_________________________________________________________________
Layer (type)                 Output Shape              Param #   
=================================================================
separable_conv2d_1571 (Separ (None, 32, 32, 16)        91        
_________________________________________________________________
activation_1987 (Activation) (None, 32, 32, 16)        0         
_________________________________________________________________
dropout_1987 (Dropout)       (None, 32, 32, 16)        0         
_________________________________________________________________
separable_conv2d_1572 (Separ (None, 32, 32, 16)        416       
_________________________________________________________________
batch_normalization_1261 (Ba (None, 32, 32, 16)        64        
_________________________________________________________________
activation_1988 (Activation) (None, 32, 32, 16)        0         
_________________________________________________________________
dropout_1988 (Dropout)       (None, 32, 32, 16)        0         
_________________________________________________________________
separable_conv2d_1573 (Separ (None, 32, 32, 128)       2320      
_________________________________________________________________
batch_normalization_1262 (Ba (None, 32, 32, 128)       512       
_________________________________________________________________
activation_1989 (Activation) (None, 32, 32, 128)       0         
_________________________________________________________________
dropout_1989 (Dropout)       (None, 32, 32, 128)       0         
_________________________________________________________________
separable_conv2d_1574 (Separ (None, 32, 32, 512)       67200     
_________________________________________________________________
activation_1990 (Activation) (None, 32, 32, 512)       0         
_________________________________________________________________
dropout_1990 (Dropout)       (None, 32, 32, 512)       0         
_________________________________________________________________
max_pooling2d_436 (MaxPoolin (None, 16, 16, 512)       0         
_________________________________________________________________
separable_conv2d_1575 (Separ (None, 16, 16, 256)       135936    
_________________________________________________________________
batch_normalization_1263 (Ba (None, 16, 16, 256)       1024      
_________________________________________________________________
activation_1991 (Activation) (None, 16, 16, 256)       0         
_________________________________________________________________
dropout_1991 (Dropout)       (None, 16, 16, 256)       0         
_________________________________________________________________
max_pooling2d_437 (MaxPoolin (None, 8, 8, 256)         0         
_________________________________________________________________
separable_conv2d_1576 (Separ (None, 8, 8, 128)         35200     
_________________________________________________________________
batch_normalization_1264 (Ba (None, 8, 8, 128)         512       
_________________________________________________________________
activation_1992 (Activation) (None, 8, 8, 128)         0         
_________________________________________________________________
dropout_1992 (Dropout)       (None, 8, 8, 128)         0         
_________________________________________________________________
flatten_248 (Flatten)        (None, 8192)              0         
_________________________________________________________________
dense_664 (Dense)            (None, 256)               2097408   
_________________________________________________________________
batch_normalization_1265 (Ba (None, 256)               1024      
_________________________________________________________________
activation_1993 (Activation) (None, 256)               0         
_________________________________________________________________
dropout_1993 (Dropout)       (None, 256)               0         
_________________________________________________________________
dense_665 (Dense)            (None, 512)               131584    
_________________________________________________________________
batch_normalization_1266 (Ba (None, 512)               2048      
_________________________________________________________________
activation_1994 (Activation) (None, 512)               0         
_________________________________________________________________
dropout_1994 (Dropout)       (None, 512)               0         
_________________________________________________________________
dense_666 (Dense)            (None, 100)               51300     
=================================================================
Total params: 2,526,639
Trainable params: 2,524,047
Non-trainable params: 2,592
_________________________________________________________________
