Model: "sequential_377"
_________________________________________________________________
Layer (type)                 Output Shape              Param #   
=================================================================
separable_conv2d_2209 (Separ (None, 32, 32, 16)        91        
_________________________________________________________________
activation_2666 (Activation) (None, 32, 32, 16)        0         
_________________________________________________________________
dropout_2666 (Dropout)       (None, 32, 32, 16)        0         
_________________________________________________________________
separable_conv2d_2210 (Separ (None, 32, 32, 16)        416       
_________________________________________________________________
batch_normalization_1797 (Ba (None, 32, 32, 16)        64        
_________________________________________________________________
activation_2667 (Activation) (None, 32, 32, 16)        0         
_________________________________________________________________
dropout_2667 (Dropout)       (None, 32, 32, 16)        0         
_________________________________________________________________
separable_conv2d_2211 (Separ (None, 32, 32, 64)        1232      
_________________________________________________________________
batch_normalization_1798 (Ba (None, 32, 32, 64)        256       
_________________________________________________________________
activation_2668 (Activation) (None, 32, 32, 64)        0         
_________________________________________________________________
dropout_2668 (Dropout)       (None, 32, 32, 64)        0         
_________________________________________________________________
separable_conv2d_2212 (Separ (None, 32, 32, 256)       17216     
_________________________________________________________________
batch_normalization_1799 (Ba (None, 32, 32, 256)       1024      
_________________________________________________________________
activation_2669 (Activation) (None, 32, 32, 256)       0         
_________________________________________________________________
dropout_2669 (Dropout)       (None, 32, 32, 256)       0         
_________________________________________________________________
max_pooling2d_648 (MaxPoolin (None, 16, 16, 256)       0         
_________________________________________________________________
separable_conv2d_2213 (Separ (None, 16, 16, 256)       68096     
_________________________________________________________________
batch_normalization_1800 (Ba (None, 16, 16, 256)       1024      
_________________________________________________________________
activation_2670 (Activation) (None, 16, 16, 256)       0         
_________________________________________________________________
dropout_2670 (Dropout)       (None, 16, 16, 256)       0         
_________________________________________________________________
max_pooling2d_649 (MaxPoolin (None, 8, 8, 256)         0         
_________________________________________________________________
flatten_377 (Flatten)        (None, 16384)             0         
_________________________________________________________________
dense_834 (Dense)            (None, 100)               1638500   
=================================================================
Total params: 1,727,919
Trainable params: 1,726,735
Non-trainable params: 1,184
_________________________________________________________________
