Model: "sequential_234"
_________________________________________________________________
Layer (type)                 Output Shape              Param #   
=================================================================
separable_conv2d_1496 (Separ (None, 32, 32, 16)        91        
_________________________________________________________________
activation_1904 (Activation) (None, 32, 32, 16)        0         
_________________________________________________________________
dropout_1904 (Dropout)       (None, 32, 32, 16)        0         
_________________________________________________________________
separable_conv2d_1497 (Separ (None, 32, 32, 16)        416       
_________________________________________________________________
batch_normalization_1204 (Ba (None, 32, 32, 16)        64        
_________________________________________________________________
activation_1905 (Activation) (None, 32, 32, 16)        0         
_________________________________________________________________
dropout_1905 (Dropout)       (None, 32, 32, 16)        0         
_________________________________________________________________
separable_conv2d_1498 (Separ (None, 32, 32, 128)       2320      
_________________________________________________________________
batch_normalization_1205 (Ba (None, 32, 32, 128)       512       
_________________________________________________________________
activation_1906 (Activation) (None, 32, 32, 128)       0         
_________________________________________________________________
dropout_1906 (Dropout)       (None, 32, 32, 128)       0         
_________________________________________________________________
separable_conv2d_1499 (Separ (None, 32, 32, 64)        9408      
_________________________________________________________________
activation_1907 (Activation) (None, 32, 32, 64)        0         
_________________________________________________________________
dropout_1907 (Dropout)       (None, 32, 32, 64)        0         
_________________________________________________________________
max_pooling2d_413 (MaxPoolin (None, 16, 16, 64)        0         
_________________________________________________________________
flatten_234 (Flatten)        (None, 16384)             0         
_________________________________________________________________
dense_642 (Dense)            (None, 512)               8389120   
_________________________________________________________________
activation_1908 (Activation) (None, 512)               0         
_________________________________________________________________
dropout_1908 (Dropout)       (None, 512)               0         
_________________________________________________________________
dense_643 (Dense)            (None, 512)               262656    
_________________________________________________________________
batch_normalization_1206 (Ba (None, 512)               2048      
_________________________________________________________________
activation_1909 (Activation) (None, 512)               0         
_________________________________________________________________
dropout_1909 (Dropout)       (None, 512)               0         
_________________________________________________________________
dense_644 (Dense)            (None, 100)               51300     
=================================================================
Total params: 8,717,935
Trainable params: 8,716,623
Non-trainable params: 1,312
_________________________________________________________________
