Model: "sequential_93"
_________________________________________________________________
Layer (type)                 Output Shape              Param #   
=================================================================
separable_conv2d_622 (Separa (None, 32, 32, 16)        91        
_________________________________________________________________
activation_813 (Activation)  (None, 32, 32, 16)        0         
_________________________________________________________________
dropout_813 (Dropout)        (None, 32, 32, 16)        0         
_________________________________________________________________
separable_conv2d_623 (Separa (None, 32, 32, 16)        416       
_________________________________________________________________
batch_normalization_496 (Bat (None, 32, 32, 16)        64        
_________________________________________________________________
activation_814 (Activation)  (None, 32, 32, 16)        0         
_________________________________________________________________
dropout_814 (Dropout)        (None, 32, 32, 16)        0         
_________________________________________________________________
separable_conv2d_624 (Separa (None, 32, 32, 8)         280       
_________________________________________________________________
activation_815 (Activation)  (None, 32, 32, 8)         0         
_________________________________________________________________
dropout_815 (Dropout)        (None, 32, 32, 8)         0         
_________________________________________________________________
separable_conv2d_625 (Separa (None, 32, 32, 16)        216       
_________________________________________________________________
batch_normalization_497 (Bat (None, 32, 32, 16)        64        
_________________________________________________________________
activation_816 (Activation)  (None, 32, 32, 16)        0         
_________________________________________________________________
dropout_816 (Dropout)        (None, 32, 32, 16)        0         
_________________________________________________________________
separable_conv2d_626 (Separa (None, 32, 32, 32)        688       
_________________________________________________________________
batch_normalization_498 (Bat (None, 32, 32, 32)        128       
_________________________________________________________________
activation_817 (Activation)  (None, 32, 32, 32)        0         
_________________________________________________________________
dropout_817 (Dropout)        (None, 32, 32, 32)        0         
_________________________________________________________________
separable_conv2d_627 (Separa (None, 32, 32, 32)        1344      
_________________________________________________________________
batch_normalization_499 (Bat (None, 32, 32, 32)        128       
_________________________________________________________________
activation_818 (Activation)  (None, 32, 32, 32)        0         
_________________________________________________________________
dropout_818 (Dropout)        (None, 32, 32, 32)        0         
_________________________________________________________________
max_pooling2d_173 (MaxPoolin (None, 16, 16, 32)        0         
_________________________________________________________________
separable_conv2d_628 (Separa (None, 16, 16, 128)       4512      
_________________________________________________________________
batch_normalization_500 (Bat (None, 16, 16, 128)       512       
_________________________________________________________________
activation_819 (Activation)  (None, 16, 16, 128)       0         
_________________________________________________________________
dropout_819 (Dropout)        (None, 16, 16, 128)       0         
_________________________________________________________________
flatten_93 (Flatten)         (None, 32768)             0         
_________________________________________________________________
dense_284 (Dense)            (None, 512)               16777728  
_________________________________________________________________
activation_820 (Activation)  (None, 512)               0         
_________________________________________________________________
dropout_820 (Dropout)        (None, 512)               0         
_________________________________________________________________
dense_285 (Dense)            (None, 512)               262656    
_________________________________________________________________
activation_821 (Activation)  (None, 512)               0         
_________________________________________________________________
dropout_821 (Dropout)        (None, 512)               0         
_________________________________________________________________
dense_286 (Dense)            (None, 100)               51300     
=================================================================
Total params: 17,100,127
Trainable params: 17,099,679
Non-trainable params: 448
_________________________________________________________________
