Model: "sequential_323"
_________________________________________________________________
Layer (type)                 Output Shape              Param #   
=================================================================
separable_conv2d_1956 (Separ (None, 32, 32, 64)        283       
_________________________________________________________________
batch_normalization_1576 (Ba (None, 32, 32, 64)        256       
_________________________________________________________________
activation_2401 (Activation) (None, 32, 32, 64)        0         
_________________________________________________________________
dropout_2401 (Dropout)       (None, 32, 32, 64)        0         
_________________________________________________________________
separable_conv2d_1957 (Separ (None, 32, 32, 1024)      67136     
_________________________________________________________________
batch_normalization_1577 (Ba (None, 32, 32, 1024)      4096      
_________________________________________________________________
activation_2402 (Activation) (None, 32, 32, 1024)      0         
_________________________________________________________________
dropout_2402 (Dropout)       (None, 32, 32, 1024)      0         
_________________________________________________________________
separable_conv2d_1958 (Separ (None, 32, 32, 128)       140416    
_________________________________________________________________
batch_normalization_1578 (Ba (None, 32, 32, 128)       512       
_________________________________________________________________
activation_2403 (Activation) (None, 32, 32, 128)       0         
_________________________________________________________________
dropout_2403 (Dropout)       (None, 32, 32, 128)       0         
_________________________________________________________________
separable_conv2d_1959 (Separ (None, 32, 32, 512)       67200     
_________________________________________________________________
activation_2404 (Activation) (None, 32, 32, 512)       0         
_________________________________________________________________
dropout_2404 (Dropout)       (None, 32, 32, 512)       0         
_________________________________________________________________
separable_conv2d_1960 (Separ (None, 32, 32, 32)        21024     
_________________________________________________________________
batch_normalization_1579 (Ba (None, 32, 32, 32)        128       
_________________________________________________________________
activation_2405 (Activation) (None, 32, 32, 32)        0         
_________________________________________________________________
dropout_2405 (Dropout)       (None, 32, 32, 32)        0         
_________________________________________________________________
max_pooling2d_549 (MaxPoolin (None, 16, 16, 32)        0         
_________________________________________________________________
flatten_323 (Flatten)        (None, 8192)              0         
_________________________________________________________________
dense_768 (Dense)            (None, 512)               4194816   
_________________________________________________________________
batch_normalization_1580 (Ba (None, 512)               2048      
_________________________________________________________________
activation_2406 (Activation) (None, 512)               0         
_________________________________________________________________
dropout_2406 (Dropout)       (None, 512)               0         
_________________________________________________________________
dense_769 (Dense)            (None, 100)               51300     
=================================================================
Total params: 4,549,215
Trainable params: 4,545,695
Non-trainable params: 3,520
_________________________________________________________________
