Model: "sequential_317"
_________________________________________________________________
Layer (type)                 Output Shape              Param #   
=================================================================
separable_conv2d_1931 (Separ (None, 32, 32, 64)        283       
_________________________________________________________________
batch_normalization_1554 (Ba (None, 32, 32, 64)        256       
_________________________________________________________________
activation_2376 (Activation) (None, 32, 32, 64)        0         
_________________________________________________________________
dropout_2376 (Dropout)       (None, 32, 32, 64)        0         
_________________________________________________________________
separable_conv2d_1932 (Separ (None, 32, 32, 128)       8896      
_________________________________________________________________
batch_normalization_1555 (Ba (None, 32, 32, 128)       512       
_________________________________________________________________
activation_2377 (Activation) (None, 32, 32, 128)       0         
_________________________________________________________________
dropout_2377 (Dropout)       (None, 32, 32, 128)       0         
_________________________________________________________________
separable_conv2d_1933 (Separ (None, 32, 32, 256)       34176     
_________________________________________________________________
batch_normalization_1556 (Ba (None, 32, 32, 256)       1024      
_________________________________________________________________
activation_2378 (Activation) (None, 32, 32, 256)       0         
_________________________________________________________________
dropout_2378 (Dropout)       (None, 32, 32, 256)       0         
_________________________________________________________________
max_pooling2d_540 (MaxPoolin (None, 16, 16, 256)       0         
_________________________________________________________________
separable_conv2d_1934 (Separ (None, 16, 16, 128)       35200     
_________________________________________________________________
batch_normalization_1557 (Ba (None, 16, 16, 128)       512       
_________________________________________________________________
activation_2379 (Activation) (None, 16, 16, 128)       0         
_________________________________________________________________
dropout_2379 (Dropout)       (None, 16, 16, 128)       0         
_________________________________________________________________
max_pooling2d_541 (MaxPoolin (None, 8, 8, 128)         0         
_________________________________________________________________
flatten_317 (Flatten)        (None, 8192)              0         
_________________________________________________________________
dense_762 (Dense)            (None, 100)               819300    
=================================================================
Total params: 900,159
Trainable params: 899,007
Non-trainable params: 1,152
_________________________________________________________________
