Model: "sequential_368"
_________________________________________________________________
Layer (type)                 Output Shape              Param #   
=================================================================
separable_conv2d_2167 (Separ (None, 32, 32, 16)        91        
_________________________________________________________________
activation_2624 (Activation) (None, 32, 32, 16)        0         
_________________________________________________________________
dropout_2624 (Dropout)       (None, 32, 32, 16)        0         
_________________________________________________________________
separable_conv2d_2168 (Separ (None, 32, 32, 16)        416       
_________________________________________________________________
batch_normalization_1761 (Ba (None, 32, 32, 16)        64        
_________________________________________________________________
activation_2625 (Activation) (None, 32, 32, 16)        0         
_________________________________________________________________
dropout_2625 (Dropout)       (None, 32, 32, 16)        0         
_________________________________________________________________
separable_conv2d_2169 (Separ (None, 32, 32, 128)       2320      
_________________________________________________________________
batch_normalization_1762 (Ba (None, 32, 32, 128)       512       
_________________________________________________________________
activation_2626 (Activation) (None, 32, 32, 128)       0         
_________________________________________________________________
dropout_2626 (Dropout)       (None, 32, 32, 128)       0         
_________________________________________________________________
separable_conv2d_2170 (Separ (None, 32, 32, 128)       17664     
_________________________________________________________________
batch_normalization_1763 (Ba (None, 32, 32, 128)       512       
_________________________________________________________________
activation_2627 (Activation) (None, 32, 32, 128)       0         
_________________________________________________________________
dropout_2627 (Dropout)       (None, 32, 32, 128)       0         
_________________________________________________________________
max_pooling2d_632 (MaxPoolin (None, 16, 16, 128)       0         
_________________________________________________________________
flatten_368 (Flatten)        (None, 32768)             0         
_________________________________________________________________
dense_825 (Dense)            (None, 100)               3276900   
=================================================================
Total params: 3,298,479
Trainable params: 3,297,935
Non-trainable params: 544
_________________________________________________________________
