Model: "sequential_169"
_________________________________________________________________
Layer (type)                 Output Shape              Param #   
=================================================================
separable_conv2d_1092 (Separ (None, 32, 32, 16)        91        
_________________________________________________________________
activation_1424 (Activation) (None, 32, 32, 16)        0         
_________________________________________________________________
dropout_1424 (Dropout)       (None, 32, 32, 16)        0         
_________________________________________________________________
separable_conv2d_1093 (Separ (None, 32, 32, 128)       2320      
_________________________________________________________________
batch_normalization_886 (Bat (None, 32, 32, 128)       512       
_________________________________________________________________
activation_1425 (Activation) (None, 32, 32, 128)       0         
_________________________________________________________________
dropout_1425 (Dropout)       (None, 32, 32, 128)       0         
_________________________________________________________________
separable_conv2d_1094 (Separ (None, 32, 32, 512)       67200     
_________________________________________________________________
activation_1426 (Activation) (None, 32, 32, 512)       0         
_________________________________________________________________
dropout_1426 (Dropout)       (None, 32, 32, 512)       0         
_________________________________________________________________
max_pooling2d_303 (MaxPoolin (None, 16, 16, 512)       0         
_________________________________________________________________
separable_conv2d_1095 (Separ (None, 16, 16, 64)        37440     
_________________________________________________________________
activation_1427 (Activation) (None, 16, 16, 64)        0         
_________________________________________________________________
dropout_1427 (Dropout)       (None, 16, 16, 64)        0         
_________________________________________________________________
max_pooling2d_304 (MaxPoolin (None, 8, 8, 64)          0         
_________________________________________________________________
separable_conv2d_1096 (Separ (None, 8, 8, 128)         8896      
_________________________________________________________________
batch_normalization_887 (Bat (None, 8, 8, 128)         512       
_________________________________________________________________
activation_1428 (Activation) (None, 8, 8, 128)         0         
_________________________________________________________________
dropout_1428 (Dropout)       (None, 8, 8, 128)         0         
_________________________________________________________________
flatten_169 (Flatten)        (None, 8192)              0         
_________________________________________________________________
dense_501 (Dense)            (None, 16)                131088    
_________________________________________________________________
activation_1429 (Activation) (None, 16)                0         
_________________________________________________________________
dropout_1429 (Dropout)       (None, 16)                0         
_________________________________________________________________
dense_502 (Dense)            (None, 128)               2176      
_________________________________________________________________
batch_normalization_888 (Bat (None, 128)               512       
_________________________________________________________________
activation_1430 (Activation) (None, 128)               0         
_________________________________________________________________
dropout_1430 (Dropout)       (None, 128)               0         
_________________________________________________________________
dense_503 (Dense)            (None, 100)               12900     
=================================================================
Total params: 263,647
Trainable params: 262,879
Non-trainable params: 768
_________________________________________________________________
