Model: "sequential_328"
_________________________________________________________________
Layer (type)                 Output Shape              Param #   
=================================================================
separable_conv2d_1981 (Separ (None, 32, 32, 16)        91        
_________________________________________________________________
activation_2428 (Activation) (None, 32, 32, 16)        0         
_________________________________________________________________
dropout_2428 (Dropout)       (None, 32, 32, 16)        0         
_________________________________________________________________
separable_conv2d_1982 (Separ (None, 32, 32, 16)        416       
_________________________________________________________________
batch_normalization_1595 (Ba (None, 32, 32, 16)        64        
_________________________________________________________________
activation_2429 (Activation) (None, 32, 32, 16)        0         
_________________________________________________________________
dropout_2429 (Dropout)       (None, 32, 32, 16)        0         
_________________________________________________________________
separable_conv2d_1983 (Separ (None, 32, 32, 128)       2320      
_________________________________________________________________
batch_normalization_1596 (Ba (None, 32, 32, 128)       512       
_________________________________________________________________
activation_2430 (Activation) (None, 32, 32, 128)       0         
_________________________________________________________________
dropout_2430 (Dropout)       (None, 32, 32, 128)       0         
_________________________________________________________________
separable_conv2d_1984 (Separ (None, 32, 32, 256)       34176     
_________________________________________________________________
batch_normalization_1597 (Ba (None, 32, 32, 256)       1024      
_________________________________________________________________
activation_2431 (Activation) (None, 32, 32, 256)       0         
_________________________________________________________________
dropout_2431 (Dropout)       (None, 32, 32, 256)       0         
_________________________________________________________________
max_pooling2d_558 (MaxPoolin (None, 16, 16, 256)       0         
_________________________________________________________________
separable_conv2d_1985 (Separ (None, 16, 16, 128)       35200     
_________________________________________________________________
batch_normalization_1598 (Ba (None, 16, 16, 128)       512       
_________________________________________________________________
activation_2432 (Activation) (None, 16, 16, 128)       0         
_________________________________________________________________
dropout_2432 (Dropout)       (None, 16, 16, 128)       0         
_________________________________________________________________
max_pooling2d_559 (MaxPoolin (None, 8, 8, 128)         0         
_________________________________________________________________
flatten_328 (Flatten)        (None, 8192)              0         
_________________________________________________________________
dense_775 (Dense)            (None, 100)               819300    
=================================================================
Total params: 893,615
Trainable params: 892,559
Non-trainable params: 1,056
_________________________________________________________________
