Model: "sequential_318"
_________________________________________________________________
Layer (type)                 Output Shape              Param #   
=================================================================
separable_conv2d_1935 (Separ (None, 32, 32, 16)        91        
_________________________________________________________________
activation_2380 (Activation) (None, 32, 32, 16)        0         
_________________________________________________________________
dropout_2380 (Dropout)       (None, 32, 32, 16)        0         
_________________________________________________________________
separable_conv2d_1936 (Separ (None, 32, 32, 16)        416       
_________________________________________________________________
batch_normalization_1558 (Ba (None, 32, 32, 16)        64        
_________________________________________________________________
activation_2381 (Activation) (None, 32, 32, 16)        0         
_________________________________________________________________
dropout_2381 (Dropout)       (None, 32, 32, 16)        0         
_________________________________________________________________
separable_conv2d_1937 (Separ (None, 32, 32, 128)       2320      
_________________________________________________________________
batch_normalization_1559 (Ba (None, 32, 32, 128)       512       
_________________________________________________________________
activation_2382 (Activation) (None, 32, 32, 128)       0         
_________________________________________________________________
dropout_2382 (Dropout)       (None, 32, 32, 128)       0         
_________________________________________________________________
separable_conv2d_1938 (Separ (None, 32, 32, 128)       17664     
_________________________________________________________________
batch_normalization_1560 (Ba (None, 32, 32, 128)       512       
_________________________________________________________________
activation_2383 (Activation) (None, 32, 32, 128)       0         
_________________________________________________________________
dropout_2383 (Dropout)       (None, 32, 32, 128)       0         
_________________________________________________________________
max_pooling2d_542 (MaxPoolin (None, 16, 16, 128)       0         
_________________________________________________________________
flatten_318 (Flatten)        (None, 32768)             0         
_________________________________________________________________
dense_763 (Dense)            (None, 100)               3276900   
=================================================================
Total params: 3,298,479
Trainable params: 3,297,935
Non-trainable params: 544
_________________________________________________________________
