Model: "sequential_8"
_________________________________________________________________
Layer (type)                 Output Shape              Param #   
=================================================================
conv2d_101 (Conv2D)          (None, 32, 32, 64)        1792      
_________________________________________________________________
batch_normalization_57 (Batc (None, 32, 32, 64)        256       
_________________________________________________________________
activation_122 (Activation)  (None, 32, 32, 64)        0         
_________________________________________________________________
dropout_122 (Dropout)        (None, 32, 32, 64)        0         
_________________________________________________________________
conv2d_102 (Conv2D)          (None, 32, 32, 512)       295424    
_________________________________________________________________
batch_normalization_58 (Batc (None, 32, 32, 512)       2048      
_________________________________________________________________
activation_123 (Activation)  (None, 32, 32, 512)       0         
_________________________________________________________________
dropout_123 (Dropout)        (None, 32, 32, 512)       0         
_________________________________________________________________
conv2d_103 (Conv2D)          (None, 32, 32, 256)       1179904   
_________________________________________________________________
batch_normalization_59 (Batc (None, 32, 32, 256)       1024      
_________________________________________________________________
activation_124 (Activation)  (None, 32, 32, 256)       0         
_________________________________________________________________
dropout_124 (Dropout)        (None, 32, 32, 256)       0         
_________________________________________________________________
conv2d_104 (Conv2D)          (None, 32, 32, 256)       590080    
_________________________________________________________________
activation_125 (Activation)  (None, 32, 32, 256)       0         
_________________________________________________________________
dropout_125 (Dropout)        (None, 32, 32, 256)       0         
_________________________________________________________________
max_pooling2d_22 (MaxPooling (None, 16, 16, 256)       0         
_________________________________________________________________
conv2d_105 (Conv2D)          (None, 16, 16, 1024)      2360320   
_________________________________________________________________
activation_126 (Activation)  (None, 16, 16, 1024)      0         
_________________________________________________________________
dropout_126 (Dropout)        (None, 16, 16, 1024)      0         
_________________________________________________________________
conv2d_106 (Conv2D)          (None, 16, 16, 128)       1179776   
_________________________________________________________________
activation_127 (Activation)  (None, 16, 16, 128)       0         
_________________________________________________________________
dropout_127 (Dropout)        (None, 16, 16, 128)       0         
_________________________________________________________________
conv2d_107 (Conv2D)          (None, 16, 16, 512)       590336    
_________________________________________________________________
activation_128 (Activation)  (None, 16, 16, 512)       0         
_________________________________________________________________
dropout_128 (Dropout)        (None, 16, 16, 512)       0         
_________________________________________________________________
conv2d_108 (Conv2D)          (None, 16, 16, 512)       2359808   
_________________________________________________________________
activation_129 (Activation)  (None, 16, 16, 512)       0         
_________________________________________________________________
dropout_129 (Dropout)        (None, 16, 16, 512)       0         
_________________________________________________________________
conv2d_109 (Conv2D)          (None, 16, 16, 64)        294976    
_________________________________________________________________
activation_130 (Activation)  (None, 16, 16, 64)        0         
_________________________________________________________________
dropout_130 (Dropout)        (None, 16, 16, 64)        0         
_________________________________________________________________
max_pooling2d_23 (MaxPooling (None, 8, 8, 64)          0         
_________________________________________________________________
conv2d_110 (Conv2D)          (None, 8, 8, 32)          18464     
_________________________________________________________________
batch_normalization_60 (Batc (None, 8, 8, 32)          128       
_________________________________________________________________
activation_131 (Activation)  (None, 8, 8, 32)          0         
_________________________________________________________________
dropout_131 (Dropout)        (None, 8, 8, 32)          0         
_________________________________________________________________
conv2d_111 (Conv2D)          (None, 8, 8, 512)         147968    
_________________________________________________________________
batch_normalization_61 (Batc (None, 8, 8, 512)         2048      
_________________________________________________________________
activation_132 (Activation)  (None, 8, 8, 512)         0         
_________________________________________________________________
dropout_132 (Dropout)        (None, 8, 8, 512)         0         
_________________________________________________________________
max_pooling2d_24 (MaxPooling (None, 4, 4, 512)         0         
_________________________________________________________________
conv2d_112 (Conv2D)          (None, 4, 4, 512)         2359808   
_________________________________________________________________
batch_normalization_62 (Batc (None, 4, 4, 512)         2048      
_________________________________________________________________
activation_133 (Activation)  (None, 4, 4, 512)         0         
_________________________________________________________________
dropout_133 (Dropout)        (None, 4, 4, 512)         0         
_________________________________________________________________
conv2d_113 (Conv2D)          (None, 4, 4, 1024)        4719616   
_________________________________________________________________
batch_normalization_63 (Batc (None, 4, 4, 1024)        4096      
_________________________________________________________________
activation_134 (Activation)  (None, 4, 4, 1024)        0         
_________________________________________________________________
dropout_134 (Dropout)        (None, 4, 4, 1024)        0         
_________________________________________________________________
conv2d_114 (Conv2D)          (None, 4, 4, 2048)        18876416  
_________________________________________________________________
activation_135 (Activation)  (None, 4, 4, 2048)        0         
_________________________________________________________________
dropout_135 (Dropout)        (None, 4, 4, 2048)        0         
_________________________________________________________________
conv2d_115 (Conv2D)          (None, 4, 4, 32)          589856    
_________________________________________________________________
batch_normalization_64 (Batc (None, 4, 4, 32)          128       
_________________________________________________________________
activation_136 (Activation)  (None, 4, 4, 32)          0         
_________________________________________________________________
dropout_136 (Dropout)        (None, 4, 4, 32)          0         
_________________________________________________________________
flatten_8 (Flatten)          (None, 512)               0         
_________________________________________________________________
dense_29 (Dense)             (None, 128)               65664     
_________________________________________________________________
batch_normalization_65 (Batc (None, 128)               512       
_________________________________________________________________
activation_137 (Activation)  (None, 128)               0         
_________________________________________________________________
dropout_137 (Dropout)        (None, 128)               0         
_________________________________________________________________
dense_30 (Dense)             (None, 256)               33024     
_________________________________________________________________
activation_138 (Activation)  (None, 256)               0         
_________________________________________________________________
dropout_138 (Dropout)        (None, 256)               0         
_________________________________________________________________
dense_31 (Dense)             (None, 10)                2570      
=================================================================
Total params: 35,678,090
Trainable params: 35,671,946
Non-trainable params: 6,144
_________________________________________________________________
