Model: "sequential_1"
_________________________________________________________________
Layer (type)                 Output Shape              Param #   
=================================================================
conv2d_15 (Conv2D)           (None, 32, 32, 128)       3584      
_________________________________________________________________
batch_normalization_8 (Batch (None, 32, 32, 128)       512       
_________________________________________________________________
activation_17 (Activation)   (None, 32, 32, 128)       0         
_________________________________________________________________
dropout_17 (Dropout)         (None, 32, 32, 128)       0         
_________________________________________________________________
conv2d_16 (Conv2D)           (None, 32, 32, 256)       295168    
_________________________________________________________________
batch_normalization_9 (Batch (None, 32, 32, 256)       1024      
_________________________________________________________________
activation_18 (Activation)   (None, 32, 32, 256)       0         
_________________________________________________________________
dropout_18 (Dropout)         (None, 32, 32, 256)       0         
_________________________________________________________________
max_pooling2d_3 (MaxPooling2 (None, 16, 16, 256)       0         
_________________________________________________________________
conv2d_17 (Conv2D)           (None, 16, 16, 1024)      2360320   
_________________________________________________________________
activation_19 (Activation)   (None, 16, 16, 1024)      0         
_________________________________________________________________
dropout_19 (Dropout)         (None, 16, 16, 1024)      0         
_________________________________________________________________
conv2d_18 (Conv2D)           (None, 16, 16, 256)       2359552   
_________________________________________________________________
batch_normalization_10 (Batc (None, 16, 16, 256)       1024      
_________________________________________________________________
activation_20 (Activation)   (None, 16, 16, 256)       0         
_________________________________________________________________
dropout_20 (Dropout)         (None, 16, 16, 256)       0         
_________________________________________________________________
conv2d_19 (Conv2D)           (None, 16, 16, 2048)      4720640   
_________________________________________________________________
activation_21 (Activation)   (None, 16, 16, 2048)      0         
_________________________________________________________________
dropout_21 (Dropout)         (None, 16, 16, 2048)      0         
_________________________________________________________________
max_pooling2d_4 (MaxPooling2 (None, 8, 8, 2048)        0         
_________________________________________________________________
conv2d_20 (Conv2D)           (None, 8, 8, 256)         4718848   
_________________________________________________________________
activation_22 (Activation)   (None, 8, 8, 256)         0         
_________________________________________________________________
dropout_22 (Dropout)         (None, 8, 8, 256)         0         
_________________________________________________________________
conv2d_21 (Conv2D)           (None, 8, 8, 256)         590080    
_________________________________________________________________
activation_23 (Activation)   (None, 8, 8, 256)         0         
_________________________________________________________________
dropout_23 (Dropout)         (None, 8, 8, 256)         0         
_________________________________________________________________
conv2d_22 (Conv2D)           (None, 8, 8, 64)          147520    
_________________________________________________________________
activation_24 (Activation)   (None, 8, 8, 64)          0         
_________________________________________________________________
dropout_24 (Dropout)         (None, 8, 8, 64)          0         
_________________________________________________________________
conv2d_23 (Conv2D)           (None, 8, 8, 128)         73856     
_________________________________________________________________
batch_normalization_11 (Batc (None, 8, 8, 128)         512       
_________________________________________________________________
activation_25 (Activation)   (None, 8, 8, 128)         0         
_________________________________________________________________
dropout_25 (Dropout)         (None, 8, 8, 128)         0         
_________________________________________________________________
conv2d_24 (Conv2D)           (None, 8, 8, 256)         295168    
_________________________________________________________________
activation_26 (Activation)   (None, 8, 8, 256)         0         
_________________________________________________________________
dropout_26 (Dropout)         (None, 8, 8, 256)         0         
_________________________________________________________________
conv2d_25 (Conv2D)           (None, 8, 8, 64)          147520    
_________________________________________________________________
activation_27 (Activation)   (None, 8, 8, 64)          0         
_________________________________________________________________
dropout_27 (Dropout)         (None, 8, 8, 64)          0         
_________________________________________________________________
flatten_1 (Flatten)          (None, 4096)              0         
_________________________________________________________________
dense_3 (Dense)              (None, 64)                262208    
_________________________________________________________________
batch_normalization_12 (Batc (None, 64)                256       
_________________________________________________________________
activation_28 (Activation)   (None, 64)                0         
_________________________________________________________________
dropout_28 (Dropout)         (None, 64)                0         
_________________________________________________________________
dense_4 (Dense)              (None, 1024)              66560     
_________________________________________________________________
activation_29 (Activation)   (None, 1024)              0         
_________________________________________________________________
dropout_29 (Dropout)         (None, 1024)              0         
_________________________________________________________________
dense_5 (Dense)              (None, 128)               131200    
_________________________________________________________________
batch_normalization_13 (Batc (None, 128)               512       
_________________________________________________________________
activation_30 (Activation)   (None, 128)               0         
_________________________________________________________________
dropout_30 (Dropout)         (None, 128)               0         
_________________________________________________________________
dense_6 (Dense)              (None, 10)                1290      
=================================================================
Total params: 16,177,354
Trainable params: 16,175,434
Non-trainable params: 1,920
_________________________________________________________________
