Model: "sequential_11"
_________________________________________________________________
Layer (type)                 Output Shape              Param #   
=================================================================
conv2d_146 (Conv2D)          (None, 32, 32, 64)        1792      
_________________________________________________________________
batch_normalization_82 (Batc (None, 32, 32, 64)        256       
_________________________________________________________________
activation_173 (Activation)  (None, 32, 32, 64)        0         
_________________________________________________________________
dropout_173 (Dropout)        (None, 32, 32, 64)        0         
_________________________________________________________________
conv2d_147 (Conv2D)          (None, 32, 32, 512)       295424    
_________________________________________________________________
batch_normalization_83 (Batc (None, 32, 32, 512)       2048      
_________________________________________________________________
activation_174 (Activation)  (None, 32, 32, 512)       0         
_________________________________________________________________
dropout_174 (Dropout)        (None, 32, 32, 512)       0         
_________________________________________________________________
conv2d_148 (Conv2D)          (None, 32, 32, 256)       1179904   
_________________________________________________________________
activation_175 (Activation)  (None, 32, 32, 256)       0         
_________________________________________________________________
dropout_175 (Dropout)        (None, 32, 32, 256)       0         
_________________________________________________________________
conv2d_149 (Conv2D)          (None, 32, 32, 256)       590080    
_________________________________________________________________
activation_176 (Activation)  (None, 32, 32, 256)       0         
_________________________________________________________________
dropout_176 (Dropout)        (None, 32, 32, 256)       0         
_________________________________________________________________
max_pooling2d_31 (MaxPooling (None, 16, 16, 256)       0         
_________________________________________________________________
conv2d_150 (Conv2D)          (None, 16, 16, 1024)      2360320   
_________________________________________________________________
activation_177 (Activation)  (None, 16, 16, 1024)      0         
_________________________________________________________________
dropout_177 (Dropout)        (None, 16, 16, 1024)      0         
_________________________________________________________________
conv2d_151 (Conv2D)          (None, 16, 16, 128)       1179776   
_________________________________________________________________
activation_178 (Activation)  (None, 16, 16, 128)       0         
_________________________________________________________________
dropout_178 (Dropout)        (None, 16, 16, 128)       0         
_________________________________________________________________
conv2d_152 (Conv2D)          (None, 16, 16, 512)       590336    
_________________________________________________________________
activation_179 (Activation)  (None, 16, 16, 512)       0         
_________________________________________________________________
dropout_179 (Dropout)        (None, 16, 16, 512)       0         
_________________________________________________________________
conv2d_153 (Conv2D)          (None, 16, 16, 512)       2359808   
_________________________________________________________________
activation_180 (Activation)  (None, 16, 16, 512)       0         
_________________________________________________________________
dropout_180 (Dropout)        (None, 16, 16, 512)       0         
_________________________________________________________________
conv2d_154 (Conv2D)          (None, 16, 16, 64)        294976    
_________________________________________________________________
activation_181 (Activation)  (None, 16, 16, 64)        0         
_________________________________________________________________
dropout_181 (Dropout)        (None, 16, 16, 64)        0         
_________________________________________________________________
max_pooling2d_32 (MaxPooling (None, 8, 8, 64)          0         
_________________________________________________________________
conv2d_155 (Conv2D)          (None, 8, 8, 32)          18464     
_________________________________________________________________
batch_normalization_84 (Batc (None, 8, 8, 32)          128       
_________________________________________________________________
activation_182 (Activation)  (None, 8, 8, 32)          0         
_________________________________________________________________
dropout_182 (Dropout)        (None, 8, 8, 32)          0         
_________________________________________________________________
conv2d_156 (Conv2D)          (None, 8, 8, 512)         147968    
_________________________________________________________________
batch_normalization_85 (Batc (None, 8, 8, 512)         2048      
_________________________________________________________________
activation_183 (Activation)  (None, 8, 8, 512)         0         
_________________________________________________________________
dropout_183 (Dropout)        (None, 8, 8, 512)         0         
_________________________________________________________________
max_pooling2d_33 (MaxPooling (None, 4, 4, 512)         0         
_________________________________________________________________
conv2d_157 (Conv2D)          (None, 4, 4, 1024)        4719616   
_________________________________________________________________
batch_normalization_86 (Batc (None, 4, 4, 1024)        4096      
_________________________________________________________________
activation_184 (Activation)  (None, 4, 4, 1024)        0         
_________________________________________________________________
dropout_184 (Dropout)        (None, 4, 4, 1024)        0         
_________________________________________________________________
conv2d_158 (Conv2D)          (None, 4, 4, 2048)        18876416  
_________________________________________________________________
activation_185 (Activation)  (None, 4, 4, 2048)        0         
_________________________________________________________________
dropout_185 (Dropout)        (None, 4, 4, 2048)        0         
_________________________________________________________________
conv2d_159 (Conv2D)          (None, 4, 4, 32)          589856    
_________________________________________________________________
batch_normalization_87 (Batc (None, 4, 4, 32)          128       
_________________________________________________________________
activation_186 (Activation)  (None, 4, 4, 32)          0         
_________________________________________________________________
dropout_186 (Dropout)        (None, 4, 4, 32)          0         
_________________________________________________________________
flatten_11 (Flatten)         (None, 512)               0         
_________________________________________________________________
dense_38 (Dense)             (None, 128)               65664     
_________________________________________________________________
batch_normalization_88 (Batc (None, 128)               512       
_________________________________________________________________
activation_187 (Activation)  (None, 128)               0         
_________________________________________________________________
dropout_187 (Dropout)        (None, 128)               0         
_________________________________________________________________
dense_39 (Dense)             (None, 256)               33024     
_________________________________________________________________
activation_188 (Activation)  (None, 256)               0         
_________________________________________________________________
dropout_188 (Dropout)        (None, 256)               0         
_________________________________________________________________
dense_40 (Dense)             (None, 10)                2570      
=================================================================
Total params: 33,315,210
Trainable params: 33,310,602
Non-trainable params: 4,608
_________________________________________________________________
