Model: "sequential_6"
_________________________________________________________________
Layer (type)                 Output Shape              Param #   
=================================================================
conv2d_71 (Conv2D)           (None, 32, 32, 64)        1792      
_________________________________________________________________
batch_normalization_41 (Batc (None, 32, 32, 64)        256       
_________________________________________________________________
activation_88 (Activation)   (None, 32, 32, 64)        0         
_________________________________________________________________
dropout_88 (Dropout)         (None, 32, 32, 64)        0         
_________________________________________________________________
conv2d_72 (Conv2D)           (None, 32, 32, 512)       295424    
_________________________________________________________________
batch_normalization_42 (Batc (None, 32, 32, 512)       2048      
_________________________________________________________________
activation_89 (Activation)   (None, 32, 32, 512)       0         
_________________________________________________________________
dropout_89 (Dropout)         (None, 32, 32, 512)       0         
_________________________________________________________________
conv2d_73 (Conv2D)           (None, 32, 32, 256)       1179904   
_________________________________________________________________
activation_90 (Activation)   (None, 32, 32, 256)       0         
_________________________________________________________________
dropout_90 (Dropout)         (None, 32, 32, 256)       0         
_________________________________________________________________
conv2d_74 (Conv2D)           (None, 32, 32, 256)       590080    
_________________________________________________________________
activation_91 (Activation)   (None, 32, 32, 256)       0         
_________________________________________________________________
dropout_91 (Dropout)         (None, 32, 32, 256)       0         
_________________________________________________________________
max_pooling2d_16 (MaxPooling (None, 16, 16, 256)       0         
_________________________________________________________________
conv2d_75 (Conv2D)           (None, 16, 16, 1024)      2360320   
_________________________________________________________________
activation_92 (Activation)   (None, 16, 16, 1024)      0         
_________________________________________________________________
dropout_92 (Dropout)         (None, 16, 16, 1024)      0         
_________________________________________________________________
conv2d_76 (Conv2D)           (None, 16, 16, 128)       1179776   
_________________________________________________________________
activation_93 (Activation)   (None, 16, 16, 128)       0         
_________________________________________________________________
dropout_93 (Dropout)         (None, 16, 16, 128)       0         
_________________________________________________________________
conv2d_77 (Conv2D)           (None, 16, 16, 512)       590336    
_________________________________________________________________
activation_94 (Activation)   (None, 16, 16, 512)       0         
_________________________________________________________________
dropout_94 (Dropout)         (None, 16, 16, 512)       0         
_________________________________________________________________
conv2d_78 (Conv2D)           (None, 16, 16, 512)       2359808   
_________________________________________________________________
activation_95 (Activation)   (None, 16, 16, 512)       0         
_________________________________________________________________
dropout_95 (Dropout)         (None, 16, 16, 512)       0         
_________________________________________________________________
conv2d_79 (Conv2D)           (None, 16, 16, 64)        294976    
_________________________________________________________________
activation_96 (Activation)   (None, 16, 16, 64)        0         
_________________________________________________________________
dropout_96 (Dropout)         (None, 16, 16, 64)        0         
_________________________________________________________________
max_pooling2d_17 (MaxPooling (None, 8, 8, 64)          0         
_________________________________________________________________
conv2d_80 (Conv2D)           (None, 8, 8, 32)          18464     
_________________________________________________________________
batch_normalization_43 (Batc (None, 8, 8, 32)          128       
_________________________________________________________________
activation_97 (Activation)   (None, 8, 8, 32)          0         
_________________________________________________________________
dropout_97 (Dropout)         (None, 8, 8, 32)          0         
_________________________________________________________________
conv2d_81 (Conv2D)           (None, 8, 8, 512)         147968    
_________________________________________________________________
batch_normalization_44 (Batc (None, 8, 8, 512)         2048      
_________________________________________________________________
activation_98 (Activation)   (None, 8, 8, 512)         0         
_________________________________________________________________
dropout_98 (Dropout)         (None, 8, 8, 512)         0         
_________________________________________________________________
max_pooling2d_18 (MaxPooling (None, 4, 4, 512)         0         
_________________________________________________________________
conv2d_82 (Conv2D)           (None, 4, 4, 512)         2359808   
_________________________________________________________________
batch_normalization_45 (Batc (None, 4, 4, 512)         2048      
_________________________________________________________________
activation_99 (Activation)   (None, 4, 4, 512)         0         
_________________________________________________________________
dropout_99 (Dropout)         (None, 4, 4, 512)         0         
_________________________________________________________________
conv2d_83 (Conv2D)           (None, 4, 4, 1024)        4719616   
_________________________________________________________________
batch_normalization_46 (Batc (None, 4, 4, 1024)        4096      
_________________________________________________________________
activation_100 (Activation)  (None, 4, 4, 1024)        0         
_________________________________________________________________
dropout_100 (Dropout)        (None, 4, 4, 1024)        0         
_________________________________________________________________
conv2d_84 (Conv2D)           (None, 4, 4, 2048)        18876416  
_________________________________________________________________
activation_101 (Activation)  (None, 4, 4, 2048)        0         
_________________________________________________________________
dropout_101 (Dropout)        (None, 4, 4, 2048)        0         
_________________________________________________________________
conv2d_85 (Conv2D)           (None, 4, 4, 32)          589856    
_________________________________________________________________
batch_normalization_47 (Batc (None, 4, 4, 32)          128       
_________________________________________________________________
activation_102 (Activation)  (None, 4, 4, 32)          0         
_________________________________________________________________
dropout_102 (Dropout)        (None, 4, 4, 32)          0         
_________________________________________________________________
flatten_6 (Flatten)          (None, 512)               0         
_________________________________________________________________
dense_23 (Dense)             (None, 128)               65664     
_________________________________________________________________
batch_normalization_48 (Batc (None, 128)               512       
_________________________________________________________________
activation_103 (Activation)  (None, 128)               0         
_________________________________________________________________
dropout_103 (Dropout)        (None, 128)               0         
_________________________________________________________________
dense_24 (Dense)             (None, 256)               33024     
_________________________________________________________________
activation_104 (Activation)  (None, 256)               0         
_________________________________________________________________
dropout_104 (Dropout)        (None, 256)               0         
_________________________________________________________________
dense_25 (Dense)             (None, 10)                2570      
=================================================================
Total params: 35,677,066
Trainable params: 35,671,434
Non-trainable params: 5,632
_________________________________________________________________
