Model: "sequential_3"
_________________________________________________________________
Layer (type)                 Output Shape              Param #   
=================================================================
conv2d_37 (Conv2D)           (None, 32, 32, 128)       3584      
_________________________________________________________________
batch_normalization_23 (Batc (None, 32, 32, 128)       512       
_________________________________________________________________
activation_45 (Activation)   (None, 32, 32, 128)       0         
_________________________________________________________________
dropout_45 (Dropout)         (None, 32, 32, 128)       0         
_________________________________________________________________
max_pooling2d_8 (MaxPooling2 (None, 16, 16, 128)       0         
_________________________________________________________________
conv2d_38 (Conv2D)           (None, 16, 16, 8)         9224      
_________________________________________________________________
activation_46 (Activation)   (None, 16, 16, 8)         0         
_________________________________________________________________
dropout_46 (Dropout)         (None, 16, 16, 8)         0         
_________________________________________________________________
conv2d_39 (Conv2D)           (None, 16, 16, 128)       9344      
_________________________________________________________________
activation_47 (Activation)   (None, 16, 16, 128)       0         
_________________________________________________________________
dropout_47 (Dropout)         (None, 16, 16, 128)       0         
_________________________________________________________________
max_pooling2d_9 (MaxPooling2 (None, 8, 8, 128)         0         
_________________________________________________________________
conv2d_40 (Conv2D)           (None, 8, 8, 256)         295168    
_________________________________________________________________
activation_48 (Activation)   (None, 8, 8, 256)         0         
_________________________________________________________________
dropout_48 (Dropout)         (None, 8, 8, 256)         0         
_________________________________________________________________
conv2d_41 (Conv2D)           (None, 8, 8, 256)         590080    
_________________________________________________________________
batch_normalization_24 (Batc (None, 8, 8, 256)         1024      
_________________________________________________________________
activation_49 (Activation)   (None, 8, 8, 256)         0         
_________________________________________________________________
dropout_49 (Dropout)         (None, 8, 8, 256)         0         
_________________________________________________________________
max_pooling2d_10 (MaxPooling (None, 4, 4, 256)         0         
_________________________________________________________________
conv2d_42 (Conv2D)           (None, 4, 4, 128)         295040    
_________________________________________________________________
batch_normalization_25 (Batc (None, 4, 4, 128)         512       
_________________________________________________________________
activation_50 (Activation)   (None, 4, 4, 128)         0         
_________________________________________________________________
dropout_50 (Dropout)         (None, 4, 4, 128)         0         
_________________________________________________________________
conv2d_43 (Conv2D)           (None, 4, 4, 2048)        2361344   
_________________________________________________________________
batch_normalization_26 (Batc (None, 4, 4, 2048)        8192      
_________________________________________________________________
activation_51 (Activation)   (None, 4, 4, 2048)        0         
_________________________________________________________________
dropout_51 (Dropout)         (None, 4, 4, 2048)        0         
_________________________________________________________________
conv2d_44 (Conv2D)           (None, 4, 4, 32)          589856    
_________________________________________________________________
batch_normalization_27 (Batc (None, 4, 4, 32)          128       
_________________________________________________________________
activation_52 (Activation)   (None, 4, 4, 32)          0         
_________________________________________________________________
dropout_52 (Dropout)         (None, 4, 4, 32)          0         
_________________________________________________________________
conv2d_45 (Conv2D)           (None, 4, 4, 128)         36992     
_________________________________________________________________
activation_53 (Activation)   (None, 4, 4, 128)         0         
_________________________________________________________________
dropout_53 (Dropout)         (None, 4, 4, 128)         0         
_________________________________________________________________
conv2d_46 (Conv2D)           (None, 4, 4, 256)         295168    
_________________________________________________________________
activation_54 (Activation)   (None, 4, 4, 256)         0         
_________________________________________________________________
dropout_54 (Dropout)         (None, 4, 4, 256)         0         
_________________________________________________________________
conv2d_47 (Conv2D)           (None, 4, 4, 2048)        4720640   
_________________________________________________________________
activation_55 (Activation)   (None, 4, 4, 2048)        0         
_________________________________________________________________
dropout_55 (Dropout)         (None, 4, 4, 2048)        0         
_________________________________________________________________
flatten_3 (Flatten)          (None, 32768)             0         
_________________________________________________________________
dense_11 (Dense)             (None, 32)                1048608   
_________________________________________________________________
activation_56 (Activation)   (None, 32)                0         
_________________________________________________________________
dropout_56 (Dropout)         (None, 32)                0         
_________________________________________________________________
dense_12 (Dense)             (None, 64)                2112      
_________________________________________________________________
batch_normalization_28 (Batc (None, 64)                256       
_________________________________________________________________
activation_57 (Activation)   (None, 64)                0         
_________________________________________________________________
dropout_57 (Dropout)         (None, 64)                0         
_________________________________________________________________
dense_13 (Dense)             (None, 16)                1040      
_________________________________________________________________
activation_58 (Activation)   (None, 16)                0         
_________________________________________________________________
dropout_58 (Dropout)         (None, 16)                0         
_________________________________________________________________
dense_14 (Dense)             (None, 10)                170       
=================================================================
Total params: 10,268,994
Trainable params: 10,263,682
Non-trainable params: 5,312
_________________________________________________________________
