Model: "sequential_7"
_________________________________________________________________
Layer (type)                 Output Shape              Param #   
=================================================================
conv2d_86 (Conv2D)           (None, 32, 32, 64)        1792      
_________________________________________________________________
batch_normalization_49 (Batc (None, 32, 32, 64)        256       
_________________________________________________________________
activation_105 (Activation)  (None, 32, 32, 64)        0         
_________________________________________________________________
dropout_105 (Dropout)        (None, 32, 32, 64)        0         
_________________________________________________________________
conv2d_87 (Conv2D)           (None, 32, 32, 512)       295424    
_________________________________________________________________
batch_normalization_50 (Batc (None, 32, 32, 512)       2048      
_________________________________________________________________
activation_106 (Activation)  (None, 32, 32, 512)       0         
_________________________________________________________________
dropout_106 (Dropout)        (None, 32, 32, 512)       0         
_________________________________________________________________
conv2d_88 (Conv2D)           (None, 32, 32, 256)       1179904   
_________________________________________________________________
activation_107 (Activation)  (None, 32, 32, 256)       0         
_________________________________________________________________
dropout_107 (Dropout)        (None, 32, 32, 256)       0         
_________________________________________________________________
conv2d_89 (Conv2D)           (None, 32, 32, 256)       590080    
_________________________________________________________________
activation_108 (Activation)  (None, 32, 32, 256)       0         
_________________________________________________________________
dropout_108 (Dropout)        (None, 32, 32, 256)       0         
_________________________________________________________________
max_pooling2d_19 (MaxPooling (None, 16, 16, 256)       0         
_________________________________________________________________
conv2d_90 (Conv2D)           (None, 16, 16, 1024)      2360320   
_________________________________________________________________
activation_109 (Activation)  (None, 16, 16, 1024)      0         
_________________________________________________________________
dropout_109 (Dropout)        (None, 16, 16, 1024)      0         
_________________________________________________________________
conv2d_91 (Conv2D)           (None, 16, 16, 128)       1179776   
_________________________________________________________________
activation_110 (Activation)  (None, 16, 16, 128)       0         
_________________________________________________________________
dropout_110 (Dropout)        (None, 16, 16, 128)       0         
_________________________________________________________________
conv2d_92 (Conv2D)           (None, 16, 16, 512)       590336    
_________________________________________________________________
activation_111 (Activation)  (None, 16, 16, 512)       0         
_________________________________________________________________
dropout_111 (Dropout)        (None, 16, 16, 512)       0         
_________________________________________________________________
conv2d_93 (Conv2D)           (None, 16, 16, 512)       2359808   
_________________________________________________________________
activation_112 (Activation)  (None, 16, 16, 512)       0         
_________________________________________________________________
dropout_112 (Dropout)        (None, 16, 16, 512)       0         
_________________________________________________________________
conv2d_94 (Conv2D)           (None, 16, 16, 64)        294976    
_________________________________________________________________
activation_113 (Activation)  (None, 16, 16, 64)        0         
_________________________________________________________________
dropout_113 (Dropout)        (None, 16, 16, 64)        0         
_________________________________________________________________
max_pooling2d_20 (MaxPooling (None, 8, 8, 64)          0         
_________________________________________________________________
conv2d_95 (Conv2D)           (None, 8, 8, 32)          18464     
_________________________________________________________________
batch_normalization_51 (Batc (None, 8, 8, 32)          128       
_________________________________________________________________
activation_114 (Activation)  (None, 8, 8, 32)          0         
_________________________________________________________________
dropout_114 (Dropout)        (None, 8, 8, 32)          0         
_________________________________________________________________
conv2d_96 (Conv2D)           (None, 8, 8, 512)         147968    
_________________________________________________________________
batch_normalization_52 (Batc (None, 8, 8, 512)         2048      
_________________________________________________________________
activation_115 (Activation)  (None, 8, 8, 512)         0         
_________________________________________________________________
dropout_115 (Dropout)        (None, 8, 8, 512)         0         
_________________________________________________________________
max_pooling2d_21 (MaxPooling (None, 4, 4, 512)         0         
_________________________________________________________________
conv2d_97 (Conv2D)           (None, 4, 4, 512)         2359808   
_________________________________________________________________
batch_normalization_53 (Batc (None, 4, 4, 512)         2048      
_________________________________________________________________
activation_116 (Activation)  (None, 4, 4, 512)         0         
_________________________________________________________________
dropout_116 (Dropout)        (None, 4, 4, 512)         0         
_________________________________________________________________
conv2d_98 (Conv2D)           (None, 4, 4, 1024)        4719616   
_________________________________________________________________
batch_normalization_54 (Batc (None, 4, 4, 1024)        4096      
_________________________________________________________________
activation_117 (Activation)  (None, 4, 4, 1024)        0         
_________________________________________________________________
dropout_117 (Dropout)        (None, 4, 4, 1024)        0         
_________________________________________________________________
conv2d_99 (Conv2D)           (None, 4, 4, 2048)        18876416  
_________________________________________________________________
activation_118 (Activation)  (None, 4, 4, 2048)        0         
_________________________________________________________________
dropout_118 (Dropout)        (None, 4, 4, 2048)        0         
_________________________________________________________________
conv2d_100 (Conv2D)          (None, 4, 4, 32)          589856    
_________________________________________________________________
batch_normalization_55 (Batc (None, 4, 4, 32)          128       
_________________________________________________________________
activation_119 (Activation)  (None, 4, 4, 32)          0         
_________________________________________________________________
dropout_119 (Dropout)        (None, 4, 4, 32)          0         
_________________________________________________________________
flatten_7 (Flatten)          (None, 512)               0         
_________________________________________________________________
dense_26 (Dense)             (None, 128)               65664     
_________________________________________________________________
batch_normalization_56 (Batc (None, 128)               512       
_________________________________________________________________
activation_120 (Activation)  (None, 128)               0         
_________________________________________________________________
dropout_120 (Dropout)        (None, 128)               0         
_________________________________________________________________
dense_27 (Dense)             (None, 256)               33024     
_________________________________________________________________
activation_121 (Activation)  (None, 256)               0         
_________________________________________________________________
dropout_121 (Dropout)        (None, 256)               0         
_________________________________________________________________
dense_28 (Dense)             (None, 10)                2570      
=================================================================
Total params: 35,677,066
Trainable params: 35,671,434
Non-trainable params: 5,632
_________________________________________________________________
