Model: "sequential_13"
_________________________________________________________________
Layer (type)                 Output Shape              Param #   
=================================================================
conv2d_175 (Conv2D)          (None, 32, 32, 64)        1792      
_________________________________________________________________
batch_normalization_97 (Batc (None, 32, 32, 64)        256       
_________________________________________________________________
activation_206 (Activation)  (None, 32, 32, 64)        0         
_________________________________________________________________
dropout_206 (Dropout)        (None, 32, 32, 64)        0         
_________________________________________________________________
conv2d_176 (Conv2D)          (None, 32, 32, 512)       295424    
_________________________________________________________________
batch_normalization_98 (Batc (None, 32, 32, 512)       2048      
_________________________________________________________________
activation_207 (Activation)  (None, 32, 32, 512)       0         
_________________________________________________________________
dropout_207 (Dropout)        (None, 32, 32, 512)       0         
_________________________________________________________________
conv2d_177 (Conv2D)          (None, 32, 32, 256)       1179904   
_________________________________________________________________
activation_208 (Activation)  (None, 32, 32, 256)       0         
_________________________________________________________________
dropout_208 (Dropout)        (None, 32, 32, 256)       0         
_________________________________________________________________
conv2d_178 (Conv2D)          (None, 32, 32, 256)       590080    
_________________________________________________________________
activation_209 (Activation)  (None, 32, 32, 256)       0         
_________________________________________________________________
dropout_209 (Dropout)        (None, 32, 32, 256)       0         
_________________________________________________________________
max_pooling2d_37 (MaxPooling (None, 16, 16, 256)       0         
_________________________________________________________________
conv2d_179 (Conv2D)          (None, 16, 16, 1024)      2360320   
_________________________________________________________________
activation_210 (Activation)  (None, 16, 16, 1024)      0         
_________________________________________________________________
dropout_210 (Dropout)        (None, 16, 16, 1024)      0         
_________________________________________________________________
conv2d_180 (Conv2D)          (None, 16, 16, 128)       1179776   
_________________________________________________________________
activation_211 (Activation)  (None, 16, 16, 128)       0         
_________________________________________________________________
dropout_211 (Dropout)        (None, 16, 16, 128)       0         
_________________________________________________________________
conv2d_181 (Conv2D)          (None, 16, 16, 512)       590336    
_________________________________________________________________
activation_212 (Activation)  (None, 16, 16, 512)       0         
_________________________________________________________________
dropout_212 (Dropout)        (None, 16, 16, 512)       0         
_________________________________________________________________
conv2d_182 (Conv2D)          (None, 16, 16, 512)       2359808   
_________________________________________________________________
activation_213 (Activation)  (None, 16, 16, 512)       0         
_________________________________________________________________
dropout_213 (Dropout)        (None, 16, 16, 512)       0         
_________________________________________________________________
conv2d_183 (Conv2D)          (None, 16, 16, 64)        294976    
_________________________________________________________________
activation_214 (Activation)  (None, 16, 16, 64)        0         
_________________________________________________________________
dropout_214 (Dropout)        (None, 16, 16, 64)        0         
_________________________________________________________________
max_pooling2d_38 (MaxPooling (None, 8, 8, 64)          0         
_________________________________________________________________
conv2d_184 (Conv2D)          (None, 8, 8, 32)          18464     
_________________________________________________________________
batch_normalization_99 (Batc (None, 8, 8, 32)          128       
_________________________________________________________________
activation_215 (Activation)  (None, 8, 8, 32)          0         
_________________________________________________________________
dropout_215 (Dropout)        (None, 8, 8, 32)          0         
_________________________________________________________________
conv2d_185 (Conv2D)          (None, 8, 8, 512)         147968    
_________________________________________________________________
batch_normalization_100 (Bat (None, 8, 8, 512)         2048      
_________________________________________________________________
activation_216 (Activation)  (None, 8, 8, 512)         0         
_________________________________________________________________
dropout_216 (Dropout)        (None, 8, 8, 512)         0         
_________________________________________________________________
max_pooling2d_39 (MaxPooling (None, 4, 4, 512)         0         
_________________________________________________________________
conv2d_186 (Conv2D)          (None, 4, 4, 512)         2359808   
_________________________________________________________________
batch_normalization_101 (Bat (None, 4, 4, 512)         2048      
_________________________________________________________________
activation_217 (Activation)  (None, 4, 4, 512)         0         
_________________________________________________________________
dropout_217 (Dropout)        (None, 4, 4, 512)         0         
_________________________________________________________________
conv2d_187 (Conv2D)          (None, 4, 4, 1024)        4719616   
_________________________________________________________________
batch_normalization_102 (Bat (None, 4, 4, 1024)        4096      
_________________________________________________________________
activation_218 (Activation)  (None, 4, 4, 1024)        0         
_________________________________________________________________
dropout_218 (Dropout)        (None, 4, 4, 1024)        0         
_________________________________________________________________
conv2d_188 (Conv2D)          (None, 4, 4, 2048)        18876416  
_________________________________________________________________
activation_219 (Activation)  (None, 4, 4, 2048)        0         
_________________________________________________________________
dropout_219 (Dropout)        (None, 4, 4, 2048)        0         
_________________________________________________________________
conv2d_189 (Conv2D)          (None, 4, 4, 32)          589856    
_________________________________________________________________
batch_normalization_103 (Bat (None, 4, 4, 32)          128       
_________________________________________________________________
activation_220 (Activation)  (None, 4, 4, 32)          0         
_________________________________________________________________
dropout_220 (Dropout)        (None, 4, 4, 32)          0         
_________________________________________________________________
flatten_13 (Flatten)         (None, 512)               0         
_________________________________________________________________
dense_44 (Dense)             (None, 128)               65664     
_________________________________________________________________
batch_normalization_104 (Bat (None, 128)               512       
_________________________________________________________________
activation_221 (Activation)  (None, 128)               0         
_________________________________________________________________
dropout_221 (Dropout)        (None, 128)               0         
_________________________________________________________________
dense_45 (Dense)             (None, 256)               33024     
_________________________________________________________________
activation_222 (Activation)  (None, 256)               0         
_________________________________________________________________
dropout_222 (Dropout)        (None, 256)               0         
_________________________________________________________________
dense_46 (Dense)             (None, 10)                2570      
=================================================================
Total params: 35,677,066
Trainable params: 35,671,434
Non-trainable params: 5,632
_________________________________________________________________
