Model: "sequential_10"
_________________________________________________________________
Layer (type)                 Output Shape              Param #   
=================================================================
conv2d_131 (Conv2D)          (None, 32, 32, 64)        1792      
_________________________________________________________________
batch_normalization_74 (Batc (None, 32, 32, 64)        256       
_________________________________________________________________
activation_156 (Activation)  (None, 32, 32, 64)        0         
_________________________________________________________________
dropout_156 (Dropout)        (None, 32, 32, 64)        0         
_________________________________________________________________
conv2d_132 (Conv2D)          (None, 32, 32, 512)       295424    
_________________________________________________________________
batch_normalization_75 (Batc (None, 32, 32, 512)       2048      
_________________________________________________________________
activation_157 (Activation)  (None, 32, 32, 512)       0         
_________________________________________________________________
dropout_157 (Dropout)        (None, 32, 32, 512)       0         
_________________________________________________________________
conv2d_133 (Conv2D)          (None, 32, 32, 256)       1179904   
_________________________________________________________________
activation_158 (Activation)  (None, 32, 32, 256)       0         
_________________________________________________________________
dropout_158 (Dropout)        (None, 32, 32, 256)       0         
_________________________________________________________________
conv2d_134 (Conv2D)          (None, 32, 32, 256)       590080    
_________________________________________________________________
activation_159 (Activation)  (None, 32, 32, 256)       0         
_________________________________________________________________
dropout_159 (Dropout)        (None, 32, 32, 256)       0         
_________________________________________________________________
max_pooling2d_28 (MaxPooling (None, 16, 16, 256)       0         
_________________________________________________________________
conv2d_135 (Conv2D)          (None, 16, 16, 1024)      2360320   
_________________________________________________________________
activation_160 (Activation)  (None, 16, 16, 1024)      0         
_________________________________________________________________
dropout_160 (Dropout)        (None, 16, 16, 1024)      0         
_________________________________________________________________
conv2d_136 (Conv2D)          (None, 16, 16, 128)       1179776   
_________________________________________________________________
activation_161 (Activation)  (None, 16, 16, 128)       0         
_________________________________________________________________
dropout_161 (Dropout)        (None, 16, 16, 128)       0         
_________________________________________________________________
conv2d_137 (Conv2D)          (None, 16, 16, 512)       590336    
_________________________________________________________________
activation_162 (Activation)  (None, 16, 16, 512)       0         
_________________________________________________________________
dropout_162 (Dropout)        (None, 16, 16, 512)       0         
_________________________________________________________________
conv2d_138 (Conv2D)          (None, 16, 16, 512)       2359808   
_________________________________________________________________
activation_163 (Activation)  (None, 16, 16, 512)       0         
_________________________________________________________________
dropout_163 (Dropout)        (None, 16, 16, 512)       0         
_________________________________________________________________
conv2d_139 (Conv2D)          (None, 16, 16, 64)        294976    
_________________________________________________________________
activation_164 (Activation)  (None, 16, 16, 64)        0         
_________________________________________________________________
dropout_164 (Dropout)        (None, 16, 16, 64)        0         
_________________________________________________________________
max_pooling2d_29 (MaxPooling (None, 8, 8, 64)          0         
_________________________________________________________________
conv2d_140 (Conv2D)          (None, 8, 8, 32)          18464     
_________________________________________________________________
batch_normalization_76 (Batc (None, 8, 8, 32)          128       
_________________________________________________________________
activation_165 (Activation)  (None, 8, 8, 32)          0         
_________________________________________________________________
dropout_165 (Dropout)        (None, 8, 8, 32)          0         
_________________________________________________________________
conv2d_141 (Conv2D)          (None, 8, 8, 512)         147968    
_________________________________________________________________
batch_normalization_77 (Batc (None, 8, 8, 512)         2048      
_________________________________________________________________
activation_166 (Activation)  (None, 8, 8, 512)         0         
_________________________________________________________________
dropout_166 (Dropout)        (None, 8, 8, 512)         0         
_________________________________________________________________
max_pooling2d_30 (MaxPooling (None, 4, 4, 512)         0         
_________________________________________________________________
conv2d_142 (Conv2D)          (None, 4, 4, 512)         2359808   
_________________________________________________________________
batch_normalization_78 (Batc (None, 4, 4, 512)         2048      
_________________________________________________________________
activation_167 (Activation)  (None, 4, 4, 512)         0         
_________________________________________________________________
dropout_167 (Dropout)        (None, 4, 4, 512)         0         
_________________________________________________________________
conv2d_143 (Conv2D)          (None, 4, 4, 1024)        4719616   
_________________________________________________________________
batch_normalization_79 (Batc (None, 4, 4, 1024)        4096      
_________________________________________________________________
activation_168 (Activation)  (None, 4, 4, 1024)        0         
_________________________________________________________________
dropout_168 (Dropout)        (None, 4, 4, 1024)        0         
_________________________________________________________________
conv2d_144 (Conv2D)          (None, 4, 4, 2048)        18876416  
_________________________________________________________________
activation_169 (Activation)  (None, 4, 4, 2048)        0         
_________________________________________________________________
dropout_169 (Dropout)        (None, 4, 4, 2048)        0         
_________________________________________________________________
conv2d_145 (Conv2D)          (None, 4, 4, 32)          589856    
_________________________________________________________________
batch_normalization_80 (Batc (None, 4, 4, 32)          128       
_________________________________________________________________
activation_170 (Activation)  (None, 4, 4, 32)          0         
_________________________________________________________________
dropout_170 (Dropout)        (None, 4, 4, 32)          0         
_________________________________________________________________
flatten_10 (Flatten)         (None, 512)               0         
_________________________________________________________________
dense_35 (Dense)             (None, 128)               65664     
_________________________________________________________________
batch_normalization_81 (Batc (None, 128)               512       
_________________________________________________________________
activation_171 (Activation)  (None, 128)               0         
_________________________________________________________________
dropout_171 (Dropout)        (None, 128)               0         
_________________________________________________________________
dense_36 (Dense)             (None, 256)               33024     
_________________________________________________________________
activation_172 (Activation)  (None, 256)               0         
_________________________________________________________________
dropout_172 (Dropout)        (None, 256)               0         
_________________________________________________________________
dense_37 (Dense)             (None, 10)                2570      
=================================================================
Total params: 35,677,066
Trainable params: 35,671,434
Non-trainable params: 5,632
_________________________________________________________________
