Model: "sequential"
_________________________________________________________________
Layer (type)                 Output Shape              Param #   
=================================================================
conv2d (Conv2D)              (None, 32, 32, 64)        1792      
_________________________________________________________________
batch_normalization (BatchNo (None, 32, 32, 64)        256       
_________________________________________________________________
activation (Activation)      (None, 32, 32, 64)        0         
_________________________________________________________________
dropout (Dropout)            (None, 32, 32, 64)        0         
_________________________________________________________________
conv2d_1 (Conv2D)            (None, 32, 32, 512)       295424    
_________________________________________________________________
batch_normalization_1 (Batch (None, 32, 32, 512)       2048      
_________________________________________________________________
activation_1 (Activation)    (None, 32, 32, 512)       0         
_________________________________________________________________
dropout_1 (Dropout)          (None, 32, 32, 512)       0         
_________________________________________________________________
conv2d_2 (Conv2D)            (None, 32, 32, 256)       1179904   
_________________________________________________________________
activation_2 (Activation)    (None, 32, 32, 256)       0         
_________________________________________________________________
dropout_2 (Dropout)          (None, 32, 32, 256)       0         
_________________________________________________________________
conv2d_3 (Conv2D)            (None, 32, 32, 256)       590080    
_________________________________________________________________
activation_3 (Activation)    (None, 32, 32, 256)       0         
_________________________________________________________________
dropout_3 (Dropout)          (None, 32, 32, 256)       0         
_________________________________________________________________
max_pooling2d (MaxPooling2D) (None, 16, 16, 256)       0         
_________________________________________________________________
conv2d_4 (Conv2D)            (None, 16, 16, 1024)      2360320   
_________________________________________________________________
activation_4 (Activation)    (None, 16, 16, 1024)      0         
_________________________________________________________________
dropout_4 (Dropout)          (None, 16, 16, 1024)      0         
_________________________________________________________________
conv2d_5 (Conv2D)            (None, 16, 16, 128)       1179776   
_________________________________________________________________
activation_5 (Activation)    (None, 16, 16, 128)       0         
_________________________________________________________________
dropout_5 (Dropout)          (None, 16, 16, 128)       0         
_________________________________________________________________
conv2d_6 (Conv2D)            (None, 16, 16, 512)       590336    
_________________________________________________________________
activation_6 (Activation)    (None, 16, 16, 512)       0         
_________________________________________________________________
dropout_6 (Dropout)          (None, 16, 16, 512)       0         
_________________________________________________________________
conv2d_7 (Conv2D)            (None, 16, 16, 512)       2359808   
_________________________________________________________________
activation_7 (Activation)    (None, 16, 16, 512)       0         
_________________________________________________________________
dropout_7 (Dropout)          (None, 16, 16, 512)       0         
_________________________________________________________________
conv2d_8 (Conv2D)            (None, 16, 16, 64)        294976    
_________________________________________________________________
activation_8 (Activation)    (None, 16, 16, 64)        0         
_________________________________________________________________
dropout_8 (Dropout)          (None, 16, 16, 64)        0         
_________________________________________________________________
max_pooling2d_1 (MaxPooling2 (None, 8, 8, 64)          0         
_________________________________________________________________
conv2d_9 (Conv2D)            (None, 8, 8, 32)          18464     
_________________________________________________________________
batch_normalization_2 (Batch (None, 8, 8, 32)          128       
_________________________________________________________________
activation_9 (Activation)    (None, 8, 8, 32)          0         
_________________________________________________________________
dropout_9 (Dropout)          (None, 8, 8, 32)          0         
_________________________________________________________________
conv2d_10 (Conv2D)           (None, 8, 8, 512)         147968    
_________________________________________________________________
batch_normalization_3 (Batch (None, 8, 8, 512)         2048      
_________________________________________________________________
activation_10 (Activation)   (None, 8, 8, 512)         0         
_________________________________________________________________
dropout_10 (Dropout)         (None, 8, 8, 512)         0         
_________________________________________________________________
max_pooling2d_2 (MaxPooling2 (None, 4, 4, 512)         0         
_________________________________________________________________
conv2d_11 (Conv2D)           (None, 4, 4, 512)         2359808   
_________________________________________________________________
batch_normalization_4 (Batch (None, 4, 4, 512)         2048      
_________________________________________________________________
activation_11 (Activation)   (None, 4, 4, 512)         0         
_________________________________________________________________
dropout_11 (Dropout)         (None, 4, 4, 512)         0         
_________________________________________________________________
conv2d_12 (Conv2D)           (None, 4, 4, 1024)        4719616   
_________________________________________________________________
batch_normalization_5 (Batch (None, 4, 4, 1024)        4096      
_________________________________________________________________
activation_12 (Activation)   (None, 4, 4, 1024)        0         
_________________________________________________________________
dropout_12 (Dropout)         (None, 4, 4, 1024)        0         
_________________________________________________________________
conv2d_13 (Conv2D)           (None, 4, 4, 2048)        18876416  
_________________________________________________________________
activation_13 (Activation)   (None, 4, 4, 2048)        0         
_________________________________________________________________
dropout_13 (Dropout)         (None, 4, 4, 2048)        0         
_________________________________________________________________
conv2d_14 (Conv2D)           (None, 4, 4, 32)          589856    
_________________________________________________________________
batch_normalization_6 (Batch (None, 4, 4, 32)          128       
_________________________________________________________________
activation_14 (Activation)   (None, 4, 4, 32)          0         
_________________________________________________________________
dropout_14 (Dropout)         (None, 4, 4, 32)          0         
_________________________________________________________________
flatten (Flatten)            (None, 512)               0         
_________________________________________________________________
dense (Dense)                (None, 128)               65664     
_________________________________________________________________
batch_normalization_7 (Batch (None, 128)               512       
_________________________________________________________________
activation_15 (Activation)   (None, 128)               0         
_________________________________________________________________
dropout_15 (Dropout)         (None, 128)               0         
_________________________________________________________________
dense_1 (Dense)              (None, 256)               33024     
_________________________________________________________________
activation_16 (Activation)   (None, 256)               0         
_________________________________________________________________
dropout_16 (Dropout)         (None, 256)               0         
_________________________________________________________________
dense_2 (Dense)              (None, 10)                2570      
=================================================================
Total params: 35,677,066
Trainable params: 35,671,434
Non-trainable params: 5,632
_________________________________________________________________
