Model: "sequential_5"
_________________________________________________________________
Layer (type)                 Output Shape              Param #   
=================================================================
conv2d_56 (Conv2D)           (None, 32, 32, 64)        1792      
_________________________________________________________________
batch_normalization_33 (Batc (None, 32, 32, 64)        256       
_________________________________________________________________
activation_71 (Activation)   (None, 32, 32, 64)        0         
_________________________________________________________________
dropout_71 (Dropout)         (None, 32, 32, 64)        0         
_________________________________________________________________
conv2d_57 (Conv2D)           (None, 32, 32, 512)       295424    
_________________________________________________________________
batch_normalization_34 (Batc (None, 32, 32, 512)       2048      
_________________________________________________________________
activation_72 (Activation)   (None, 32, 32, 512)       0         
_________________________________________________________________
dropout_72 (Dropout)         (None, 32, 32, 512)       0         
_________________________________________________________________
conv2d_58 (Conv2D)           (None, 32, 32, 256)       1179904   
_________________________________________________________________
activation_73 (Activation)   (None, 32, 32, 256)       0         
_________________________________________________________________
dropout_73 (Dropout)         (None, 32, 32, 256)       0         
_________________________________________________________________
conv2d_59 (Conv2D)           (None, 32, 32, 256)       590080    
_________________________________________________________________
activation_74 (Activation)   (None, 32, 32, 256)       0         
_________________________________________________________________
dropout_74 (Dropout)         (None, 32, 32, 256)       0         
_________________________________________________________________
max_pooling2d_13 (MaxPooling (None, 16, 16, 256)       0         
_________________________________________________________________
conv2d_60 (Conv2D)           (None, 16, 16, 1024)      2360320   
_________________________________________________________________
activation_75 (Activation)   (None, 16, 16, 1024)      0         
_________________________________________________________________
dropout_75 (Dropout)         (None, 16, 16, 1024)      0         
_________________________________________________________________
conv2d_61 (Conv2D)           (None, 16, 16, 128)       1179776   
_________________________________________________________________
activation_76 (Activation)   (None, 16, 16, 128)       0         
_________________________________________________________________
dropout_76 (Dropout)         (None, 16, 16, 128)       0         
_________________________________________________________________
conv2d_62 (Conv2D)           (None, 16, 16, 512)       590336    
_________________________________________________________________
activation_77 (Activation)   (None, 16, 16, 512)       0         
_________________________________________________________________
dropout_77 (Dropout)         (None, 16, 16, 512)       0         
_________________________________________________________________
conv2d_63 (Conv2D)           (None, 16, 16, 512)       2359808   
_________________________________________________________________
activation_78 (Activation)   (None, 16, 16, 512)       0         
_________________________________________________________________
dropout_78 (Dropout)         (None, 16, 16, 512)       0         
_________________________________________________________________
conv2d_64 (Conv2D)           (None, 16, 16, 64)        294976    
_________________________________________________________________
activation_79 (Activation)   (None, 16, 16, 64)        0         
_________________________________________________________________
dropout_79 (Dropout)         (None, 16, 16, 64)        0         
_________________________________________________________________
max_pooling2d_14 (MaxPooling (None, 8, 8, 64)          0         
_________________________________________________________________
conv2d_65 (Conv2D)           (None, 8, 8, 32)          18464     
_________________________________________________________________
batch_normalization_35 (Batc (None, 8, 8, 32)          128       
_________________________________________________________________
activation_80 (Activation)   (None, 8, 8, 32)          0         
_________________________________________________________________
dropout_80 (Dropout)         (None, 8, 8, 32)          0         
_________________________________________________________________
conv2d_66 (Conv2D)           (None, 8, 8, 512)         147968    
_________________________________________________________________
batch_normalization_36 (Batc (None, 8, 8, 512)         2048      
_________________________________________________________________
activation_81 (Activation)   (None, 8, 8, 512)         0         
_________________________________________________________________
dropout_81 (Dropout)         (None, 8, 8, 512)         0         
_________________________________________________________________
max_pooling2d_15 (MaxPooling (None, 4, 4, 512)         0         
_________________________________________________________________
conv2d_67 (Conv2D)           (None, 4, 4, 512)         2359808   
_________________________________________________________________
batch_normalization_37 (Batc (None, 4, 4, 512)         2048      
_________________________________________________________________
activation_82 (Activation)   (None, 4, 4, 512)         0         
_________________________________________________________________
dropout_82 (Dropout)         (None, 4, 4, 512)         0         
_________________________________________________________________
conv2d_68 (Conv2D)           (None, 4, 4, 1024)        4719616   
_________________________________________________________________
batch_normalization_38 (Batc (None, 4, 4, 1024)        4096      
_________________________________________________________________
activation_83 (Activation)   (None, 4, 4, 1024)        0         
_________________________________________________________________
dropout_83 (Dropout)         (None, 4, 4, 1024)        0         
_________________________________________________________________
conv2d_69 (Conv2D)           (None, 4, 4, 2048)        18876416  
_________________________________________________________________
activation_84 (Activation)   (None, 4, 4, 2048)        0         
_________________________________________________________________
dropout_84 (Dropout)         (None, 4, 4, 2048)        0         
_________________________________________________________________
conv2d_70 (Conv2D)           (None, 4, 4, 32)          589856    
_________________________________________________________________
batch_normalization_39 (Batc (None, 4, 4, 32)          128       
_________________________________________________________________
activation_85 (Activation)   (None, 4, 4, 32)          0         
_________________________________________________________________
dropout_85 (Dropout)         (None, 4, 4, 32)          0         
_________________________________________________________________
flatten_5 (Flatten)          (None, 512)               0         
_________________________________________________________________
dense_20 (Dense)             (None, 128)               65664     
_________________________________________________________________
batch_normalization_40 (Batc (None, 128)               512       
_________________________________________________________________
activation_86 (Activation)   (None, 128)               0         
_________________________________________________________________
dropout_86 (Dropout)         (None, 128)               0         
_________________________________________________________________
dense_21 (Dense)             (None, 256)               33024     
_________________________________________________________________
activation_87 (Activation)   (None, 256)               0         
_________________________________________________________________
dropout_87 (Dropout)         (None, 256)               0         
_________________________________________________________________
dense_22 (Dense)             (None, 10)                2570      
=================================================================
Total params: 35,677,066
Trainable params: 35,671,434
Non-trainable params: 5,632
_________________________________________________________________
