Model: "sequential_14"
_________________________________________________________________
Layer (type)                 Output Shape              Param #   
=================================================================
conv2d_190 (Conv2D)          (None, 32, 32, 64)        1792      
_________________________________________________________________
batch_normalization_105 (Bat (None, 32, 32, 64)        256       
_________________________________________________________________
activation_223 (Activation)  (None, 32, 32, 64)        0         
_________________________________________________________________
dropout_223 (Dropout)        (None, 32, 32, 64)        0         
_________________________________________________________________
conv2d_191 (Conv2D)          (None, 32, 32, 512)       295424    
_________________________________________________________________
batch_normalization_106 (Bat (None, 32, 32, 512)       2048      
_________________________________________________________________
activation_224 (Activation)  (None, 32, 32, 512)       0         
_________________________________________________________________
dropout_224 (Dropout)        (None, 32, 32, 512)       0         
_________________________________________________________________
conv2d_192 (Conv2D)          (None, 32, 32, 256)       1179904   
_________________________________________________________________
activation_225 (Activation)  (None, 32, 32, 256)       0         
_________________________________________________________________
dropout_225 (Dropout)        (None, 32, 32, 256)       0         
_________________________________________________________________
conv2d_193 (Conv2D)          (None, 32, 32, 256)       590080    
_________________________________________________________________
activation_226 (Activation)  (None, 32, 32, 256)       0         
_________________________________________________________________
dropout_226 (Dropout)        (None, 32, 32, 256)       0         
_________________________________________________________________
max_pooling2d_40 (MaxPooling (None, 16, 16, 256)       0         
_________________________________________________________________
conv2d_194 (Conv2D)          (None, 16, 16, 1024)      2360320   
_________________________________________________________________
activation_227 (Activation)  (None, 16, 16, 1024)      0         
_________________________________________________________________
dropout_227 (Dropout)        (None, 16, 16, 1024)      0         
_________________________________________________________________
conv2d_195 (Conv2D)          (None, 16, 16, 128)       1179776   
_________________________________________________________________
activation_228 (Activation)  (None, 16, 16, 128)       0         
_________________________________________________________________
dropout_228 (Dropout)        (None, 16, 16, 128)       0         
_________________________________________________________________
conv2d_196 (Conv2D)          (None, 16, 16, 512)       590336    
_________________________________________________________________
activation_229 (Activation)  (None, 16, 16, 512)       0         
_________________________________________________________________
dropout_229 (Dropout)        (None, 16, 16, 512)       0         
_________________________________________________________________
conv2d_197 (Conv2D)          (None, 16, 16, 512)       2359808   
_________________________________________________________________
activation_230 (Activation)  (None, 16, 16, 512)       0         
_________________________________________________________________
dropout_230 (Dropout)        (None, 16, 16, 512)       0         
_________________________________________________________________
conv2d_198 (Conv2D)          (None, 16, 16, 64)        294976    
_________________________________________________________________
activation_231 (Activation)  (None, 16, 16, 64)        0         
_________________________________________________________________
dropout_231 (Dropout)        (None, 16, 16, 64)        0         
_________________________________________________________________
max_pooling2d_41 (MaxPooling (None, 8, 8, 64)          0         
_________________________________________________________________
conv2d_199 (Conv2D)          (None, 8, 8, 32)          18464     
_________________________________________________________________
batch_normalization_107 (Bat (None, 8, 8, 32)          128       
_________________________________________________________________
activation_232 (Activation)  (None, 8, 8, 32)          0         
_________________________________________________________________
dropout_232 (Dropout)        (None, 8, 8, 32)          0         
_________________________________________________________________
conv2d_200 (Conv2D)          (None, 8, 8, 512)         147968    
_________________________________________________________________
batch_normalization_108 (Bat (None, 8, 8, 512)         2048      
_________________________________________________________________
activation_233 (Activation)  (None, 8, 8, 512)         0         
_________________________________________________________________
dropout_233 (Dropout)        (None, 8, 8, 512)         0         
_________________________________________________________________
max_pooling2d_42 (MaxPooling (None, 4, 4, 512)         0         
_________________________________________________________________
conv2d_201 (Conv2D)          (None, 4, 4, 512)         2359808   
_________________________________________________________________
batch_normalization_109 (Bat (None, 4, 4, 512)         2048      
_________________________________________________________________
activation_234 (Activation)  (None, 4, 4, 512)         0         
_________________________________________________________________
dropout_234 (Dropout)        (None, 4, 4, 512)         0         
_________________________________________________________________
conv2d_202 (Conv2D)          (None, 4, 4, 1024)        4719616   
_________________________________________________________________
batch_normalization_110 (Bat (None, 4, 4, 1024)        4096      
_________________________________________________________________
activation_235 (Activation)  (None, 4, 4, 1024)        0         
_________________________________________________________________
dropout_235 (Dropout)        (None, 4, 4, 1024)        0         
_________________________________________________________________
conv2d_203 (Conv2D)          (None, 4, 4, 2048)        18876416  
_________________________________________________________________
activation_236 (Activation)  (None, 4, 4, 2048)        0         
_________________________________________________________________
dropout_236 (Dropout)        (None, 4, 4, 2048)        0         
_________________________________________________________________
conv2d_204 (Conv2D)          (None, 4, 4, 32)          589856    
_________________________________________________________________
batch_normalization_111 (Bat (None, 4, 4, 32)          128       
_________________________________________________________________
activation_237 (Activation)  (None, 4, 4, 32)          0         
_________________________________________________________________
dropout_237 (Dropout)        (None, 4, 4, 32)          0         
_________________________________________________________________
flatten_14 (Flatten)         (None, 512)               0         
_________________________________________________________________
dense_47 (Dense)             (None, 128)               65664     
_________________________________________________________________
batch_normalization_112 (Bat (None, 128)               512       
_________________________________________________________________
activation_238 (Activation)  (None, 128)               0         
_________________________________________________________________
dropout_238 (Dropout)        (None, 128)               0         
_________________________________________________________________
dense_48 (Dense)             (None, 256)               33024     
_________________________________________________________________
activation_239 (Activation)  (None, 256)               0         
_________________________________________________________________
dropout_239 (Dropout)        (None, 256)               0         
_________________________________________________________________
dense_49 (Dense)             (None, 10)                2570      
=================================================================
Total params: 35,677,066
Trainable params: 35,671,434
Non-trainable params: 5,632
_________________________________________________________________
