Model: "sequential_12"
_________________________________________________________________
Layer (type)                 Output Shape              Param #   
=================================================================
conv2d_160 (Conv2D)          (None, 32, 32, 64)        1792      
_________________________________________________________________
batch_normalization_89 (Batc (None, 32, 32, 64)        256       
_________________________________________________________________
activation_189 (Activation)  (None, 32, 32, 64)        0         
_________________________________________________________________
dropout_189 (Dropout)        (None, 32, 32, 64)        0         
_________________________________________________________________
conv2d_161 (Conv2D)          (None, 32, 32, 512)       295424    
_________________________________________________________________
batch_normalization_90 (Batc (None, 32, 32, 512)       2048      
_________________________________________________________________
activation_190 (Activation)  (None, 32, 32, 512)       0         
_________________________________________________________________
dropout_190 (Dropout)        (None, 32, 32, 512)       0         
_________________________________________________________________
conv2d_162 (Conv2D)          (None, 32, 32, 256)       1179904   
_________________________________________________________________
activation_191 (Activation)  (None, 32, 32, 256)       0         
_________________________________________________________________
dropout_191 (Dropout)        (None, 32, 32, 256)       0         
_________________________________________________________________
conv2d_163 (Conv2D)          (None, 32, 32, 256)       590080    
_________________________________________________________________
activation_192 (Activation)  (None, 32, 32, 256)       0         
_________________________________________________________________
dropout_192 (Dropout)        (None, 32, 32, 256)       0         
_________________________________________________________________
max_pooling2d_34 (MaxPooling (None, 16, 16, 256)       0         
_________________________________________________________________
conv2d_164 (Conv2D)          (None, 16, 16, 1024)      2360320   
_________________________________________________________________
activation_193 (Activation)  (None, 16, 16, 1024)      0         
_________________________________________________________________
dropout_193 (Dropout)        (None, 16, 16, 1024)      0         
_________________________________________________________________
conv2d_165 (Conv2D)          (None, 16, 16, 128)       1179776   
_________________________________________________________________
activation_194 (Activation)  (None, 16, 16, 128)       0         
_________________________________________________________________
dropout_194 (Dropout)        (None, 16, 16, 128)       0         
_________________________________________________________________
conv2d_166 (Conv2D)          (None, 16, 16, 512)       590336    
_________________________________________________________________
activation_195 (Activation)  (None, 16, 16, 512)       0         
_________________________________________________________________
dropout_195 (Dropout)        (None, 16, 16, 512)       0         
_________________________________________________________________
conv2d_167 (Conv2D)          (None, 16, 16, 512)       2359808   
_________________________________________________________________
activation_196 (Activation)  (None, 16, 16, 512)       0         
_________________________________________________________________
dropout_196 (Dropout)        (None, 16, 16, 512)       0         
_________________________________________________________________
conv2d_168 (Conv2D)          (None, 16, 16, 64)        294976    
_________________________________________________________________
activation_197 (Activation)  (None, 16, 16, 64)        0         
_________________________________________________________________
dropout_197 (Dropout)        (None, 16, 16, 64)        0         
_________________________________________________________________
max_pooling2d_35 (MaxPooling (None, 8, 8, 64)          0         
_________________________________________________________________
conv2d_169 (Conv2D)          (None, 8, 8, 32)          18464     
_________________________________________________________________
batch_normalization_91 (Batc (None, 8, 8, 32)          128       
_________________________________________________________________
activation_198 (Activation)  (None, 8, 8, 32)          0         
_________________________________________________________________
dropout_198 (Dropout)        (None, 8, 8, 32)          0         
_________________________________________________________________
conv2d_170 (Conv2D)          (None, 8, 8, 512)         147968    
_________________________________________________________________
batch_normalization_92 (Batc (None, 8, 8, 512)         2048      
_________________________________________________________________
activation_199 (Activation)  (None, 8, 8, 512)         0         
_________________________________________________________________
dropout_199 (Dropout)        (None, 8, 8, 512)         0         
_________________________________________________________________
max_pooling2d_36 (MaxPooling (None, 4, 4, 512)         0         
_________________________________________________________________
conv2d_171 (Conv2D)          (None, 4, 4, 512)         2359808   
_________________________________________________________________
batch_normalization_93 (Batc (None, 4, 4, 512)         2048      
_________________________________________________________________
activation_200 (Activation)  (None, 4, 4, 512)         0         
_________________________________________________________________
dropout_200 (Dropout)        (None, 4, 4, 512)         0         
_________________________________________________________________
conv2d_172 (Conv2D)          (None, 4, 4, 1024)        4719616   
_________________________________________________________________
batch_normalization_94 (Batc (None, 4, 4, 1024)        4096      
_________________________________________________________________
activation_201 (Activation)  (None, 4, 4, 1024)        0         
_________________________________________________________________
dropout_201 (Dropout)        (None, 4, 4, 1024)        0         
_________________________________________________________________
conv2d_173 (Conv2D)          (None, 4, 4, 2048)        18876416  
_________________________________________________________________
activation_202 (Activation)  (None, 4, 4, 2048)        0         
_________________________________________________________________
dropout_202 (Dropout)        (None, 4, 4, 2048)        0         
_________________________________________________________________
conv2d_174 (Conv2D)          (None, 4, 4, 32)          589856    
_________________________________________________________________
batch_normalization_95 (Batc (None, 4, 4, 32)          128       
_________________________________________________________________
activation_203 (Activation)  (None, 4, 4, 32)          0         
_________________________________________________________________
dropout_203 (Dropout)        (None, 4, 4, 32)          0         
_________________________________________________________________
flatten_12 (Flatten)         (None, 512)               0         
_________________________________________________________________
dense_41 (Dense)             (None, 128)               65664     
_________________________________________________________________
batch_normalization_96 (Batc (None, 128)               512       
_________________________________________________________________
activation_204 (Activation)  (None, 128)               0         
_________________________________________________________________
dropout_204 (Dropout)        (None, 128)               0         
_________________________________________________________________
dense_42 (Dense)             (None, 256)               33024     
_________________________________________________________________
activation_205 (Activation)  (None, 256)               0         
_________________________________________________________________
dropout_205 (Dropout)        (None, 256)               0         
_________________________________________________________________
dense_43 (Dense)             (None, 10)                2570      
=================================================================
Total params: 35,677,066
Trainable params: 35,671,434
Non-trainable params: 5,632
_________________________________________________________________
