Model: "sequential_4"
_________________________________________________________________
Layer (type)                 Output Shape              Param #   
=================================================================
conv2d_48 (Conv2D)           (None, 32, 32, 32)        896       
_________________________________________________________________
activation_59 (Activation)   (None, 32, 32, 32)        0         
_________________________________________________________________
dropout_59 (Dropout)         (None, 32, 32, 32)        0         
_________________________________________________________________
max_pooling2d_11 (MaxPooling (None, 16, 16, 32)        0         
_________________________________________________________________
conv2d_49 (Conv2D)           (None, 16, 16, 64)        18496     
_________________________________________________________________
activation_60 (Activation)   (None, 16, 16, 64)        0         
_________________________________________________________________
dropout_60 (Dropout)         (None, 16, 16, 64)        0         
_________________________________________________________________
conv2d_50 (Conv2D)           (None, 16, 16, 1024)      590848    
_________________________________________________________________
activation_61 (Activation)   (None, 16, 16, 1024)      0         
_________________________________________________________________
dropout_61 (Dropout)         (None, 16, 16, 1024)      0         
_________________________________________________________________
conv2d_51 (Conv2D)           (None, 16, 16, 1024)      9438208   
_________________________________________________________________
activation_62 (Activation)   (None, 16, 16, 1024)      0         
_________________________________________________________________
dropout_62 (Dropout)         (None, 16, 16, 1024)      0         
_________________________________________________________________
max_pooling2d_12 (MaxPooling (None, 8, 8, 1024)        0         
_________________________________________________________________
conv2d_52 (Conv2D)           (None, 8, 8, 16)          147472    
_________________________________________________________________
activation_63 (Activation)   (None, 8, 8, 16)          0         
_________________________________________________________________
dropout_63 (Dropout)         (None, 8, 8, 16)          0         
_________________________________________________________________
conv2d_53 (Conv2D)           (None, 8, 8, 256)         37120     
_________________________________________________________________
batch_normalization_29 (Batc (None, 8, 8, 256)         1024      
_________________________________________________________________
activation_64 (Activation)   (None, 8, 8, 256)         0         
_________________________________________________________________
dropout_64 (Dropout)         (None, 8, 8, 256)         0         
_________________________________________________________________
conv2d_54 (Conv2D)           (None, 8, 8, 256)         590080    
_________________________________________________________________
activation_65 (Activation)   (None, 8, 8, 256)         0         
_________________________________________________________________
dropout_65 (Dropout)         (None, 8, 8, 256)         0         
_________________________________________________________________
conv2d_55 (Conv2D)           (None, 8, 8, 1024)        2360320   
_________________________________________________________________
batch_normalization_30 (Batc (None, 8, 8, 1024)        4096      
_________________________________________________________________
activation_66 (Activation)   (None, 8, 8, 1024)        0         
_________________________________________________________________
dropout_66 (Dropout)         (None, 8, 8, 1024)        0         
_________________________________________________________________
flatten_4 (Flatten)          (None, 65536)             0         
_________________________________________________________________
dense_15 (Dense)             (None, 1024)              67109888  
_________________________________________________________________
batch_normalization_31 (Batc (None, 1024)              4096      
_________________________________________________________________
activation_67 (Activation)   (None, 1024)              0         
_________________________________________________________________
dropout_67 (Dropout)         (None, 1024)              0         
_________________________________________________________________
dense_16 (Dense)             (None, 32)                32800     
_________________________________________________________________
batch_normalization_32 (Batc (None, 32)                128       
_________________________________________________________________
activation_68 (Activation)   (None, 32)                0         
_________________________________________________________________
dropout_68 (Dropout)         (None, 32)                0         
_________________________________________________________________
dense_17 (Dense)             (None, 256)               8448      
_________________________________________________________________
activation_69 (Activation)   (None, 256)               0         
_________________________________________________________________
dropout_69 (Dropout)         (None, 256)               0         
_________________________________________________________________
dense_18 (Dense)             (None, 16)                4112      
_________________________________________________________________
activation_70 (Activation)   (None, 16)                0         
_________________________________________________________________
dropout_70 (Dropout)         (None, 16)                0         
_________________________________________________________________
dense_19 (Dense)             (None, 10)                170       
=================================================================
Total params: 80,348,202
Trainable params: 80,343,530
Non-trainable params: 4,672
_________________________________________________________________
