Model: "sequential_9"
_________________________________________________________________
Layer (type)                 Output Shape              Param #   
=================================================================
conv2d_116 (Conv2D)          (None, 32, 32, 64)        1792      
_________________________________________________________________
batch_normalization_66 (Batc (None, 32, 32, 64)        256       
_________________________________________________________________
activation_139 (Activation)  (None, 32, 32, 64)        0         
_________________________________________________________________
dropout_139 (Dropout)        (None, 32, 32, 64)        0         
_________________________________________________________________
conv2d_117 (Conv2D)          (None, 32, 32, 512)       295424    
_________________________________________________________________
batch_normalization_67 (Batc (None, 32, 32, 512)       2048      
_________________________________________________________________
activation_140 (Activation)  (None, 32, 32, 512)       0         
_________________________________________________________________
dropout_140 (Dropout)        (None, 32, 32, 512)       0         
_________________________________________________________________
conv2d_118 (Conv2D)          (None, 32, 32, 256)       1179904   
_________________________________________________________________
activation_141 (Activation)  (None, 32, 32, 256)       0         
_________________________________________________________________
dropout_141 (Dropout)        (None, 32, 32, 256)       0         
_________________________________________________________________
conv2d_119 (Conv2D)          (None, 32, 32, 256)       590080    
_________________________________________________________________
activation_142 (Activation)  (None, 32, 32, 256)       0         
_________________________________________________________________
dropout_142 (Dropout)        (None, 32, 32, 256)       0         
_________________________________________________________________
max_pooling2d_25 (MaxPooling (None, 16, 16, 256)       0         
_________________________________________________________________
conv2d_120 (Conv2D)          (None, 16, 16, 1024)      2360320   
_________________________________________________________________
activation_143 (Activation)  (None, 16, 16, 1024)      0         
_________________________________________________________________
dropout_143 (Dropout)        (None, 16, 16, 1024)      0         
_________________________________________________________________
conv2d_121 (Conv2D)          (None, 16, 16, 128)       1179776   
_________________________________________________________________
activation_144 (Activation)  (None, 16, 16, 128)       0         
_________________________________________________________________
dropout_144 (Dropout)        (None, 16, 16, 128)       0         
_________________________________________________________________
conv2d_122 (Conv2D)          (None, 16, 16, 512)       590336    
_________________________________________________________________
activation_145 (Activation)  (None, 16, 16, 512)       0         
_________________________________________________________________
dropout_145 (Dropout)        (None, 16, 16, 512)       0         
_________________________________________________________________
conv2d_123 (Conv2D)          (None, 16, 16, 512)       2359808   
_________________________________________________________________
activation_146 (Activation)  (None, 16, 16, 512)       0         
_________________________________________________________________
dropout_146 (Dropout)        (None, 16, 16, 512)       0         
_________________________________________________________________
conv2d_124 (Conv2D)          (None, 16, 16, 64)        294976    
_________________________________________________________________
activation_147 (Activation)  (None, 16, 16, 64)        0         
_________________________________________________________________
dropout_147 (Dropout)        (None, 16, 16, 64)        0         
_________________________________________________________________
max_pooling2d_26 (MaxPooling (None, 8, 8, 64)          0         
_________________________________________________________________
conv2d_125 (Conv2D)          (None, 8, 8, 32)          18464     
_________________________________________________________________
batch_normalization_68 (Batc (None, 8, 8, 32)          128       
_________________________________________________________________
activation_148 (Activation)  (None, 8, 8, 32)          0         
_________________________________________________________________
dropout_148 (Dropout)        (None, 8, 8, 32)          0         
_________________________________________________________________
conv2d_126 (Conv2D)          (None, 8, 8, 512)         147968    
_________________________________________________________________
batch_normalization_69 (Batc (None, 8, 8, 512)         2048      
_________________________________________________________________
activation_149 (Activation)  (None, 8, 8, 512)         0         
_________________________________________________________________
dropout_149 (Dropout)        (None, 8, 8, 512)         0         
_________________________________________________________________
max_pooling2d_27 (MaxPooling (None, 4, 4, 512)         0         
_________________________________________________________________
conv2d_127 (Conv2D)          (None, 4, 4, 512)         2359808   
_________________________________________________________________
batch_normalization_70 (Batc (None, 4, 4, 512)         2048      
_________________________________________________________________
activation_150 (Activation)  (None, 4, 4, 512)         0         
_________________________________________________________________
dropout_150 (Dropout)        (None, 4, 4, 512)         0         
_________________________________________________________________
conv2d_128 (Conv2D)          (None, 4, 4, 1024)        4719616   
_________________________________________________________________
batch_normalization_71 (Batc (None, 4, 4, 1024)        4096      
_________________________________________________________________
activation_151 (Activation)  (None, 4, 4, 1024)        0         
_________________________________________________________________
dropout_151 (Dropout)        (None, 4, 4, 1024)        0         
_________________________________________________________________
conv2d_129 (Conv2D)          (None, 4, 4, 2048)        18876416  
_________________________________________________________________
activation_152 (Activation)  (None, 4, 4, 2048)        0         
_________________________________________________________________
dropout_152 (Dropout)        (None, 4, 4, 2048)        0         
_________________________________________________________________
conv2d_130 (Conv2D)          (None, 4, 4, 32)          589856    
_________________________________________________________________
batch_normalization_72 (Batc (None, 4, 4, 32)          128       
_________________________________________________________________
activation_153 (Activation)  (None, 4, 4, 32)          0         
_________________________________________________________________
dropout_153 (Dropout)        (None, 4, 4, 32)          0         
_________________________________________________________________
flatten_9 (Flatten)          (None, 512)               0         
_________________________________________________________________
dense_32 (Dense)             (None, 128)               65664     
_________________________________________________________________
batch_normalization_73 (Batc (None, 128)               512       
_________________________________________________________________
activation_154 (Activation)  (None, 128)               0         
_________________________________________________________________
dropout_154 (Dropout)        (None, 128)               0         
_________________________________________________________________
dense_33 (Dense)             (None, 256)               33024     
_________________________________________________________________
activation_155 (Activation)  (None, 256)               0         
_________________________________________________________________
dropout_155 (Dropout)        (None, 256)               0         
_________________________________________________________________
dense_34 (Dense)             (None, 10)                2570      
=================================================================
Total params: 35,677,066
Trainable params: 35,671,434
Non-trainable params: 5,632
_________________________________________________________________
